…
        min_scale: 0.3
        max_scale: 1
        min_aspect_ratio: 0.5
        max_aspect_ratio: 2
      }
      sample_constraint {
        min_jaccard_overlap: 0.9
      }
      max_sample: 1
      max_trials: 50
    }
    batch_sampler {
      sampler {
        min_scale: 0.3
        max_scale: 1
        min_aspect_ratio: 0.5
        max_aspect_ratio: 2
      }
      sample_constraint {
        max_jaccard_overlap: 1
      }
      max_sample: 1
      max_trials: 50
    }
    label_map_file: "/data0/ph/dataset/Food122/labelmap_food122.prototxt"
  }
}
layer {
  name: "conv1_1"
  type: "Convolution"
  bottom: "data"
  top: "conv1_1"
  param {
    lr_mult: 0
    decay_mult: 0
  }
  param {
    lr_mult: 0
    decay_mult: 0
  }
  convolution_param {
    num_output: 64
    pad: 1
    kernel_size: 3
    weight_filler {
      type: "xavier"
    }
    bias_filler {
      type: "constant"
      value: 0
    }
  }
}
layer {
  name: "relu1_1"
  type: "ReLU"
  bottom: "conv1_1"
  top: "conv1_1"
}
layer {
  name: "conv1_2"
  type: "Convolution"
  bottom: "conv1_1"
  top: "conv1_2"
  param {
    lr_mult: 0
    decay_mult: 0
  }
  param {
    lr_mult: 0
    decay_mult: 0
  }
  convolution_param {
    num_output: 64
    pad: 1
    kernel_size: 3
    weight_filler {
      type: "xavier"
    }
    bias_filler {
      type: "constant"
      value: 0
    }
  }
}
layer {
  name: "relu1_2"
  type: "ReLU"
  bottom: "conv1_2"
  top: "conv1_2"
}
layer {
  name: "pool1"
  type: "Pooling"
  bottom: "conv1_2"
  top: "pool1"
  pooling_param {
    pool: MAX
    kernel_size: 2
    stride: 2
  }
}
layer {
  name: "conv2_1"
  type: "Convolution"
  bottom: "pool1"
  top: "conv2_1"
  param {
    lr_mult: 0
    decay_mult: 0
  }
  param {
    lr_mult: 0
    decay_mult: 0
  }
  convolution_param {
    num_output: 128
    pad: 1
    kernel_size: 3
    weight_filler {
      type: "xavier"
    }
    bias_filler {
      type: "constant"
      value: 0
    }
  }
}
layer {
  name: "relu2_1"
  type: "ReLU"
  bottom: "conv2_1"
  top: "conv2_1"
}
layer {
  name: "conv2_2"
  type: "Convolution"
  bottom: "conv2_1"
  top: "conv2_2"
  param {
    lr_mult: 0
    decay_mult: 0
  }
  param {
    lr_mult: 0
    decay_mult: 0
  }
  convolution_param {
    num_output: 128
    pad: 1
    kernel_size: 3
    weight_filler {
      type: "xavier"
    }
    bias_filler {
      type: "constant"
      value: 0
    }
  }
}
layer {
  name: "relu2_2"
  type: "ReLU"
  bottom: "conv2_2"
  top: "conv2_2"
}
layer {
  name: "pool2"
  type: "Pooling"
  bottom: "conv2_2"
  top: "pool2"
  pooling_param {
    pool: MAX
    kernel_size: 2
    stride: 2
  }
}
layer {
  name: "conv3_1"
  type: "Convolution"
  bottom: "pool2"
  top: "conv3_1"
  param {
    lr_mult: 1
    decay_mult: 1
  }
  param {
    lr_mult: 2
    decay_mult: 0
  }
  convolution_param {
    num_output: 256
    pad: 1
    kernel_size: 3
    weight_filler {
      type: "xavier"
    }
    bias_filler {
      type: "constant"
      value: 0
    }
  }
}
layer {
  name: "relu3_1"
  type: "ReLU"
  bottom: "conv3_1"
  top: "conv3_1"
}
layer {
  name: "conv3_2"
  type: "Convolution"
  bottom: "conv3_1"
  top: "conv3_2"
  param {
    lr_mult: 1
    decay_mult: 1
  }
  param {
    lr_mult: 2
    decay_mult: 0
  }
  convolution_param {
    num_output: 256
    pad: 1
    kernel_size: 3
    weight_filler {
      type: "xavier"
    }
    bias_filler {
      type: "constant"
      value: 0
    }
  }
}
layer {
  name: "relu3_2"
  type: "ReLU"
  bottom: "conv3_2"
  top: "conv3_2"
}
layer {
  name: "conv3_3"
  type: "Convolution"
  bottom: "conv3_2"
  top: "conv3_3"
  param {
    lr_mult: 1
    decay_mult: 1
  }
  param {
    lr_mult: 2
    decay_mult: 0
  }
  convolution_param {
    num_output: 256
    pad: 1
    kernel_size: 3
    weight_filler {
      type: "xavier"
    }
    bias_filler {
      type: "constant"
      value: 0
    }
  }
}
layer {
  name: "relu3_3"
  type: "ReLU"
  bottom: "conv3_3"
  top: "conv3_3"
}
layer {
  name: "pool3"
  type: "Pooling"
  bottom: "conv3_3"
  top: "pool3"
  pooling_param {
    pool: MAX
    kernel_size: 2
    stride: 2
  }
}
layer {
  name: "conv4_1"
  type: "Convolution"
  bottom: "pool3"
  top: "conv4_1"
  param {
    lr_mult: 1
    decay_mult: 1
  }
  param {
    lr_mult: 2
    decay_mult: 0
  }
  convolution_param {
    num_output: 512
    pad: 1
    kernel_size: 3
    weight_filler {
      type: "xavier"
    }
    bias_filler {
      type: "constant"
      value: 0
    }
  }
}
layer {
  name: "relu4_1"
  type: "ReLU"
  bottom: "conv4_1"
  top: "conv4_1"
}
layer {
  name: "conv4_2"
  type: "Convolution"
  bottom: "conv4_1"
  top: "conv4_2"
  param {
    lr_mult: 1
    decay_mult: 1
  }
  param {
    lr_mult: 2
    decay_mult: 0
  }
  convolution_param {
    num_output: 512
    pad: 1
    kernel_size: 3
    weight_filler {
      type: "xavier"
    }
    bias_filler {
      type: "constant"
      value: 0
    }
  }
}
layer {
  name: "relu4_2"
  type: "ReLU"
  bottom: "conv4_2"
  top: "conv4_2"
}
layer {
  name: "conv4_3"
  type: "Convolution"
  bottom: "conv4_2"
  top: "conv4_3"
  param {
    lr_mult: 1
    decay_mult: 1
  }
  param {
    lr_mult: 2
    decay_mult: 0
  }
  convolution_param {
    num_output: 512
    pad: 1
    kernel_size: 3
    weight_filler {
      type: "xavier"
    }
    bias_filler {
      type: "constant"
      value: 0
    }
  }
}
layer {
  name: "relu4_3"
  type: "ReLU"
  bottom: "conv4_3"
  top: "conv4_3"
}
layer {
  name: "pool4"
  type: "Pooling"
  bottom: "conv4_3"
  top: "pool4"
  pooling_param {
    pool: MAX
    kernel_size: 2
    stride: 2
  }
}
layer {
  name: "conv5_1"
  type: "Convolution"
  bottom: "pool4"
  top: "conv5_1"
  param {
    lr_mult: 1
    decay_mult: 1
  }
  param {
    lr_mult: 2
    decay_mult: 0
  }
  convolution_param {
    num_output: 512
    pad: 1
    kernel_size: 3
    weight_filler {
      type: "xavier"
    }
    bias_filler {
      type: "constant"
      value: 0
    }
  }
}
layer {
  name: "relu5_1"
  type: "ReLU"
  bottom: "conv5_1"
  top: "conv5_1"
}
layer {
  name: "conv5_2"
  type: "Convolution"
  bottom: "conv5_1"
  top: "conv5_2"
  param {
    lr_mult: 1
    decay_mult: 1
  }
  param {
    lr_mult: 2
    decay_mult: 0
  }
  convolution_param {
    num_output: 512
    pad: 1
    kernel_size: 3
    weight_filler {
      type: "xavier"
    }
    bias_filler {
      type: "constant"
      value: 0
    }
  }
}
layer {
  name: "relu5_2"
  type: "ReLU"
  bottom: "conv5_2"
  top: "conv5_2"
}
layer {
  name: "conv5_3"
  type: "Convolution"
  bottom: "conv5_2"
  top: "conv5_3"
  param {
    lr_mult: 1
    decay_mult: 1
  }
  param {
    lr_mult: 2
    decay_mult: 0
  }
  convolution_param {
    num_output: 512
    pad: 1
    kernel_size: 3
    weight_filler {
      type: "xavier"
    }
    bias_filler {
      type: "constant"
      value: 0
    }
  }
}
layer {
  name: "relu5_3"
  type: "ReLU"
  bottom: "conv5_3"
  top: "conv5_3"
}
layer {
  name: "pool5"
  type: "Pooling"
  bottom: "conv5_3"
  top: "pool5"
  pooling_param {
    pool: MAX
    kernel_size: 3
    stride: 1
    pad: 1
  }
}
layer {
  name: "fc6"
  type: "Convolution"
  bottom: "pool5"
  top: "fc6"
  param {
    lr_mult: 1
    decay_mult: 1
  }
  param {
    lr_mult: 2
    decay_mult: 0
  }
  convolution_param {
    num_output: 1024
    pad: 6
    kernel_size: 3
    weight_filler {
      type: "xavier"
    }
    bias_filler {
      type: "constant"
      value: 0
    }
    dilation: 6
  }
}
layer {
  name: "relu6"
  type: "ReLU"
  bottom: "fc6"
  top: "fc6"
}
layer {
  name: "fc7"
  type: "Convolution"
  bottom: "fc6"
  top: "fc7"
  param {
    lr_mult: 1
    decay_mult: 1
  }
  param {
    lr_mult: 2
    decay_mult: 0
  }
  convolution_param {
    num_output: 1024
    kernel_size: 1
    weight_filler {
      type: "xavier"
    }
    bias_filler {
      type: "constant"
      value: 0
    }
  }
}
layer {
  name: "relu7"
  type: "ReLU"
  bottom: "fc7"
  top: "fc7"
}
layer {
  name: "conv6_1"
  type: "Convolution"
  bottom: "fc7"
  top: "conv6_1"
  param {
    lr_mult: 1
    decay_mult: 1
  }
  param {
    lr_mult: 2
    decay_mult: 0
  }
  convolution_param {
    num_output: 256
    pad: 0
    kernel_size: 1
    stride: 1
    weight_filler {
      type: "xavier"
    }
    bias_filler {
      type: "constant"
      value: 0
    }
  }
}
layer {
  name: "conv6_1_relu"
  type: "ReLU"
  bottom: "conv6_1"
  top: "conv6_1"
}
layer {
  name: "conv6_2"
  type: "Convolution"
  bottom: "conv6_1"
  top: "conv6_2"
  param {
    lr_mult: 1
    decay_mult: 1
  }
  param {
    lr_mult: 2
    decay_mult: 0
  }
  convolution_param {
    num_output: 512
    pad: 1
    kernel_size: 3
    stride: 2
    weight_filler {
      type: "xavier"
    }
    bias_filler {
      type: "constant"
      value: 0
    }
  }
}
layer {
  name: "conv6_2_relu"
  type: "ReLU"
  bottom: "conv6_2"
  top: "conv6_2"
}
layer {
  name: "conv7_1"
  type: "Convolution"
  bottom: "conv6_2"
  top: "conv7_1"
  param {
    lr_mult: 1
    decay_mult: 1
  }
  param {
    lr_mult: 2
    decay_mult: 0
  }
  convolution_param {
    num_output: 128
    pad: 0
    kernel_size: 1
    stride: 1
    weight_filler {
      type: "xavier"
    }
    bias_filler {
      type: "constant"
      value: 0
    }
  }
}
layer {
  name: "conv7_1_relu"
  type: "ReLU"
  bottom: "conv7_1"
  top: "conv7_1"
}
layer {
  name: "conv7_2"
  type: "Convolution"
  bottom: "conv7_1"
  top: "conv7_2"
  param {
    lr_mult: 1
    decay_mult: 1
  }
  param {
    lr_mult: 2
    decay_mult: 0
  }
  convolution_param {
    num_output: 256
    pad: 1
    kernel_size: 3
    stride: 2
    weight_filler {
      type: "xavier"
    }
    bias_filler {
      type: "constant"
      value: 0
    }
  }
}
layer {
  name: "conv7_2_relu"
  type: "ReLU"
  bottom: "conv7_2"
  top: "conv7_2"
}
layer {
  name: "conv8_1"
  type: "Convolution"
  bottom: "conv7_2"
  top: "conv8_1"
  param {
    lr_mult: 1
    decay_mult: 1
  }
  param {
    lr_mult: 2
    decay_mult: 0
  }
  convolution_param {
    num_output: 128
    pad: 0
    kernel_size: 1
    stride: 1
    weight_filler {
      type: "xavier"
    }
    bias_filler {
      type: "constant"
      value: 0
    }
  }
}
layer {
  name: "conv8_1_relu"
  type: "ReLU"
  bottom: "conv8_1"
  top: "conv8_1"
}
layer {
  name: "conv8_2"
  type: "Convolution"
  bottom: "conv8_1"
  top: "conv8_2"
  param {
    lr_mult: 1
    decay_mult: 1
  }
  param {
    lr_mult: 2
    decay_mult: 0
  }
  convolution_param {
    num_output: 256
    pad: 1
    kernel_size: 3
    stride: 2
    weight_filler {
      type: "xavier"
    }
    bias_filler {
      type: "constant"
      value: 0
    }
  }
}
layer {
  name: "conv8_2_relu"
  type: "ReLU"
  bottom: "conv8_2"
  top: "conv8_2"
}
layer {
  name: "conv9_1"
  type: "Convolution"
  bottom: "conv8_2"
  top: "conv9_1"
  param {
    lr_mult: 1
    decay_mult: 1
  }
  param {
    lr_mult: 2
    decay_mult: 0
  }
  convolution_param {
    num_output: 128
    pad: 0
    kernel_size: 1
    stride: 1
    weight_filler {
      type: "xavier"
    }
    bias_filler {
      type: "constant"
      value: 0
    }
  }
}
layer {
  name: "conv9_1_relu"
  type: "ReLU"
  bottom: "conv9_1"
  top: "conv9_1"
}
layer {
  name: "conv9_2"
  type: "Convolution"
  bottom: "conv9_1"
  top: "conv9_2"
  param {
    lr_mult: 1
    decay_mult: 1
  }
  param {
    lr_mult: 2
    decay_mult: 0
  }
  convolution_param {
    num_output: 256
    pad: 1
    kernel_size: 3
    stride: 2
    weight_filler {
      type: "xavier"
    }
    bias_filler {
      type: "constant"
      value: 0
    }
  }
}
layer {
  name: "conv9_2_relu"
  type: "ReLU"
  bottom: "conv9_2"
  top: "conv9_2"
}
layer {
  name: "pool6"
  type: "Pooling"
  bottom: "conv9_2"
  top: "pool6"
  pooling_param {
    pool: AVE
    global_pooling: true
  }
}
layer {
  name: "conv4_3_norm"
  type: "Normalize"
  bottom: "conv4_3"
  top: "conv4_3_norm"
  norm_param {
    across_spatial: false
    scale_filler {
      type: "constant"
      value: 20
    }
    channel_shared: false
  }
}
layer {
  name: "conv4_3_norm_mbox_loc"
  type: "Convolution"
  bottom: "conv4_3_norm"
  top: "conv4_3_norm_mbox_loc"
  param {
    lr_mult: 1
    decay_mult: 1
  }
  param {
    lr_mult: 2
    decay_mult: 0
  }
  convolution_param {
    num_output: 12
    pad: 1
    kernel_size: 3
    stride: 1
    weight_filler {
      type: "xavier"
    }
    bias_filler {
      type: "constant"
      value: 0
    }
  }
}
layer {
  name: "conv4_3_norm_mbox_loc_perm"
  type: "Permute"
  bottom: "conv4_3_norm_mbox_loc"
  top: "conv4_3_norm_mbox_loc_perm"
  permute_param {
    order: 0
    order: 2
    order: 3
    order: 1
  }
}
layer {
  name: "conv4_3_norm_mbox_loc_flat"
  type: "Flatten"
  bottom: "conv4_3_norm_mbox_loc_perm"
  top: "conv4_3_norm_mbox_loc_flat"
  flatten_param {
    axis: 1
  }
}
layer {
  name: "conv4_3_norm_mbox_conf"
  type: "Convolution"
  bottom: "conv4_3_norm"
  top: "conv4_3_norm_mbox_conf"
  param {
    lr_mult: 1
    decay_mult: 1
  }
  param {
    lr_mult: 2
    decay_mult: 0
  }
  convolution_param {
    num_output: 369
    pad: 1
    kernel_size: 3
    stride: 1
    weight_filler {
      type: "xavier"
    }
    bias_filler {
      type: "constant"
      value: 0
    }
  }
}
layer {
  name: "conv4_3_norm_mbox_conf_perm"
  type: "Permute"
  bottom: "conv4_3_norm_mbox_conf"
  top: "conv4_3_norm_mbox_conf_perm"
  permute_param {
    order: 0
    order: 2
    order: 3
    order: 1
  }
}
layer {
  name: "conv4_3_norm_mbox_conf_flat"
  type: "Flatten"
  bottom: "conv4_3_norm_mbox_conf_perm"
  top: "conv4_3_norm_mbox_conf_flat"
  flatten_param {
    axis: 1
  }
}
layer {
  name: "conv4_3_norm_mbox_priorbox"
  type: "PriorBox"
  bottom: "conv4_3_norm"
  bottom: "data"
  top: "conv4_3_norm_mbox_priorbox"
  prior_box_param {
    min_size: 35
    aspect_ratio: 2
    flip: true
    clip: true
    variance: 0.1
    variance: 0.1
    variance: 0.2
    variance: 0.2
  }
}
layer {
  name: "fc7_mbox_loc"
  type: "Convolution"
  bottom: "fc7"
  top: "fc7_mbox_loc"
  param {
    lr_mult: 1
    decay_mult: 1
  }
  param {
    lr_mult: 2
    decay_mult: 0
  }
  convolution_param {
    num_output: 24
    pad: 1
    kernel_size: 3
    stride: 1
    weight_filler {
      type: "xavier"
    }
    bias_filler {
      type: "constant"
      value: 0
    }
  }
}
layer {
  name: "fc7_mbox_loc_perm"
  type: "Permute"
  bottom: "fc7_mbox_loc"
  top: "fc7_mbox_loc_perm"
  permute_param {
    order: 0
    order: 2
    order: 3
    order: 1
  }
}
layer {
  name: "fc7_mbox_loc_flat"
  type: "Flatten"
  bottom: "fc7_mbox_loc_perm"
  top: "fc7_mbox_loc_flat"
  flatten_param {
    axis: 1
  }
}
layer {
  name: "fc7_mbox_conf"
  type: "Convolution"
  bottom: "fc7"
  top: "fc7_mbox_conf"
  param {
    lr_mult: 1
    decay_mult: 1
  }
  param {
    lr_mult: 2
    decay_mult: 0
  }
  convolution_param {
    num_output: 738
    pad: 1
    kernel_size: 3
    stride: 1
    weight_filler {
      type: "xavier"
    }
    bias_filler {
      type: "constant"
      value: 0
    }
  }
}
layer {
  name: "fc7_mbox_conf_perm"
  type: "Permute"
  bottom: "fc7_mbox_conf"
  top: "fc7_mbox_conf_perm"
  permute_param {
    order: 0
    order: 2
    order: 3
    order: 1
  }
}
layer {
  name: "fc7_mbox_conf_flat"
  type: "Flatten"
  bottom: "fc7_mbox_conf_perm"
  top: "fc7_mbox_conf_flat"
  flatten_param {
    axis: 1
  }
}
layer {
  name: "fc7_mbox_priorbox"
  type: "PriorBox"
  bottom: "fc7"
  bottom: "data"
  top: "fc7_mbox_priorbox"
  prior_box_param {
    min_size: 75
    max_size: 155
    aspect_ratio: 2
    aspect_ratio: 3
    flip: true
    clip: true
    variance: 0.1
    variance: 0.1
    variance: 0.2
    variance: 0.2
  }
}
layer {
  name: "conv6_2_mbox_loc"
  type: "Convolution"
  bottom: "conv6_2"
  top: "conv6_2_mbox_loc"
  param {
    lr_mult: 1
    decay_mult: 1
  }
  param {
    lr_mult: 2
    decay_mult: 0
  }
  convolution_param {
    num_output: 24
    pad: 1
    kernel_size: 3
    stride: 1
    weight_filler {
      type: "xavier"
    }
    bias_filler {
      type: "constant"
      value: 0
    }
  }
}
layer {
  name: "conv6_2_mbox_loc_perm"
  type: "Permute"
  bottom: "conv6_2_mbox_loc"
  top: "conv6_2_mbox_loc_perm"
  permute_param {
    order: 0
    order: 2
    order: 3
    order: 1
  }
}
layer {
  name: "conv6_2_mbox_loc_flat"
  type: "Flatten"
  bottom: "conv6_2_mbox_loc_perm"
  top: "conv6_2_mbox_loc_flat"
  flatten_param {
    axis: 1
  }
}
layer {
  name: "conv6_2_mbox_conf"
  type: "Convolution"
  bottom: "conv6_2"
  top: "conv6_2_mbox_conf"
  param {
    lr_mult: 1
    decay_mult: 1
  }
  param {
    lr_mult: 2
    decay_mult: 0
  }
  convolution_param {
    num_output: 738
    pad: 1
    kernel_size: 3
    stride: 1
    weight_filler {
      type: "xavier"
    }
    bias_filler {
      type: "constant"
      value: 0
    }
  }
}
layer {
  name: "conv6_2_mbox_conf_perm"
  type: "Permute"
  bottom: "conv6_2_mbox_conf"
  top: "conv6_2_mbox_conf_perm"
  permute_param {
    order: 0
    order: 2
    order: 3
    order: 1
  }
}
layer {
  name: "conv6_2_mbox_conf_flat"
  type: "Flatten"
  bottom: "conv6_2_mbox_conf_perm"
  top: "conv6_2_mbox_conf_flat"
  flatten_param {
    axis: 1
  }
}
layer {
  name: "conv6_2_mbox_priorbox"
  type: "PriorBox"
  bottom: "conv6_2"
  bottom: "data"
  top: "conv6_2_mbox_priorbox"
  prior_box_param {
    min_size: 155
    max_size: 235
    aspect_ratio: 2
    aspect_ratio: 3
    flip: true
    clip: true
    variance: 0.1
    variance: 0.1
    variance: 0.2
    variance: 0.2
  }
}
layer {
  name: "conv7_2_mbox_loc"
  type: "Convolution"
  bottom: "conv7_2"
  top: "conv7_2_mbox_loc"
  param {
    lr_mult: 1
    decay_mult: 1
  }
  param {
    lr_mult: 2
    decay_mult: 0
  }
  convolution_param {
    num_output: 24
    pad: 1
    kernel_size: 3
    stride: 1
    weight_filler {
      type: "xavier"
    }
    bias_filler {
      type: "constant"
      value: 0
    }
  }
}
layer {
  name: "conv7_2_mbox_loc_perm"
  type: "Permute"
  bottom: "conv7_2_mbox_loc"
  top: "conv7_2_mbox_loc_perm"
  permute_param {
    order: 0
    order: 2
    order: 3
    order: 1
  }
}
layer {
  name: "conv7_2_mbox_loc_flat"
  type: "Flatten"
  bottom: "conv7_2_mbox_loc_perm"
  top: "conv7_2_mbox_loc_flat"
  flatten_param {
    axis: 1
  }
}
layer {
  name: "conv7_2_mbox_conf"
  type: "Convolution"
  bottom: "conv7_2"
  top: "conv7_2_mbox_conf"
  param {
    lr_mult: 1
    decay_mult: 1
  }
  param {
    lr_mult: 2
    decay_mult: 0
  }
  convolution_param {
    num_output: 738
    pad: 1
    kernel_size: 3
    stride: 1
    weight_filler {
      type: "xavier"
    }
    bias_filler {
      type: "constant"
      value: 0
    }
  }
}
layer {
  name: "conv7_2_mbox_conf_perm"
  type: "Permute"
  bottom: "conv7_2_mbox_conf"
  top: "conv7_2_mbox_conf_perm"
  permute_param {
    order: 0
    order: 2
    order: 3
    order: 1
  }
}
layer {
  name: "conv7_2_mbox_conf_flat"
  type: "Flatten"
  bottom: "conv7_2_mbox_conf_perm"
  top: "conv7_2_mbox_conf_flat"
  flatten_param {
    axis: 1
  }
}
layer {
  name: "conv7_2_mbox_priorbox"
  type: "PriorBox"
  bottom: "conv7_2"
  bottom: "data"
  top: "conv7_2_mbox_priorbox"
  prior_box_param {
    min_size: 235
    max_size: 315
    aspect_ratio: 2
    aspect_ratio: 3
    flip: true
    clip: true
    variance: 0.1
    variance: 0.1
    variance: 0.2
    variance: 0.2
  }
}
layer {
  name: "conv8_2_mbox_loc"
  type: "Convolution"
  bottom: "conv8_2"
  top: "conv8_2_mbox_loc"
  param {
    lr_mult: 1
    decay_mult: 1
  }
  param {
    lr_mult: 2
    decay_mult: 0
  }
  convolution_param {
    num_output: 24
    pad: 1
    kernel_size: 3
    stride: 1
    weight_filler {
      type: "xavier"
    }
    bias_filler {
      type: "constant"
      value: 0
    }
  }
}
layer {
  name: "conv8_2_mbox_loc_perm"
  type: "Permute"
  bottom: "conv8_2_mbox_loc"
  top: "conv8_2_mbox_loc_perm"
  permute_param {
    order: 0
    order: 2
    order: 3
    order: 1
  }
}
layer {
  name: "conv8_2_mbox_loc_flat"
  type: "Flatten"
  bottom: "conv8_2_mbox_loc_perm"
  top: "conv8_2_mbox_loc_flat"
  flatten_param {
    axis: 1
  }
}
layer {
  name: "conv8_2_mbox_conf"
  type: "Convolution"
  bottom: "conv8_2"
  top: "conv8_2_mbox_conf"
  param {
    lr_mult: 1
    decay_mult: 1
  }
  param {
    lr_mult: 2
    decay_mult: 0
  }
  convolution_param {
    num_output: 738
    pad: 1
    kernel_size: 3
    stride: 1
    weight_filler {
      type: "xavier"
    }
    bias_filler {
      type: "constant"
      value: 0
    }
  }
}
layer {
  name: "conv8_2_mbox_conf_perm"
  type: "Permute"
  bottom: "conv8_2_mbox_conf"
  top: "conv8_2_mbox_conf_perm"
  permute_param {
    order: 0
    order: 2
    order: 3
    order: 1
  }
}
layer {
  name: "conv8_2_mbox_conf_flat"
  type: "Flatten"
  bottom: "conv8_2_mbox_conf_perm"
  top: "conv8_2_mbox_conf_flat"
  flatten_param {
    axis: 1
  }
}
layer {
  name: "conv8_2_mbox_priorbox"
  type: "PriorBox"
  bottom: "conv8_2"
  bottom: "data"
  top: "conv8_2_mbox_priorbox"
  prior_box_param {
    min_size: 315
    max_size: 395
    aspect_ratio: 2
    aspect_ratio: 3
    flip: true
    clip: true
    variance: 0.1
    variance: 0.1
    variance: 0.2
    variance: 0.2
  }
}
layer {
  name: "conv9_2_mbox_loc"
  type: "Convolution"
  bottom: "conv9_2"
  top: "conv9_2_mbox_loc"
  param {
    lr_mult: 1
    decay_mult: 1
  }
  param {
    lr_mult: 2
    decay_mult: 0
  }
  convolution_param {
    num_output: 24
    pad: 1
    kernel_size: 3
    stride: 1
    weight_filler {
      type: "xavier"
    }
    bias_filler {
      type: "constant"
      value: 0
    }
  }
}
layer {
  name: "conv9_2_mbox_loc_perm"
  type: "Permute"
  bottom: "conv9_2_mbox_loc"
  top: "conv9_2_mbox_loc_perm"
  permute_param {
    order: 0
    order: 2
    order: 3
    order: 1
  }
}
layer {
  name: "conv9_2_mbox_loc_flat"
  type: "Flatten"
  bottom: "conv9_2_mbox_loc_perm"
  top: "conv9_2_mbox_loc_flat"
  flatten_param {
    axis: 1
  }
}
layer {
  name: "conv9_2_mbox_conf"
  type: "Convolution"
  bottom: "conv9_2"
  top: "conv9_2_mbox_conf"
  param {
    lr_mult: 1
    decay_mult: 1
  }
  param {
    lr_mult: 2
    decay_mult: 0
  }
  convolution_param {
    num_output: 738
    pad: 1
    kernel_size: 3
    stride: 1
    weight_filler {
      type: "xavier"
    }
    bias_filler {
      type: "constant"
      value: 0
    }
  }
}
layer {
  name: "conv9_2_mbox_conf_perm"
  type: "Permute"
  bottom: "conv9_2_mbox_conf"
  top: "conv9_2_mbox_conf_perm"
  permute_param {
    order: 0
    order: 2
    order: 3
    order: 1
  }
}
layer {
  name: "conv9_2_mbox_conf_flat"
  type: "Flatten"
  bottom: "conv9_2_mbox_conf_perm"
  top: "conv9_2_mbox_conf_flat"
  flatten_param {
    axis: 1
  }
}
layer {
  name: "conv9_2_mbox_priorbox"
  type: "PriorBox"
  bottom: "conv9_2"
  bottom: "data"
  top: "conv9_2_mbox_priorbox"
  prior_box_param {
    min_size: 395
    max_size: 475
    aspect_ratio: 2
    aspect_ratio: 3
    flip: true
    clip: true
    variance: 0.1
    variance: 0.1
    variance: 0.2
    variance: 0.2
  }
}
layer {
  name: "pool6_mbox_loc"
  type: "Convolution"
  bottom: "pool6"
  top: "pool6_mbox_loc"
  param {
    lr_mult: 1
    decay_mult: 1
  }
  param {
    lr_mult: 2
    decay_mult: 0
  }
  convolution_param {
    num_output: 24
    pad: 1
    kernel_size: 3
    stride: 1
    weight_filler {
      type: "xavier"
    }
    bias_filler {
      type: "constant"
      value: 0
    }
  }
}
layer {
  name: "pool6_mbox_loc_perm"
  type: "Permute"
  bottom: "pool6_mbox_loc"
  top: "pool6_mbox_loc_perm"
  permute_param {
    order: 0
    order: 2
    order: 3
    order: 1
  }
}
layer {
  name: "pool6_mbox_loc_flat"
  type: "Flatten"
  bottom: "pool6_mbox_loc_perm"
  top: "pool6_mbox_loc_flat"
  flatten_param {
    axis: 1
  }
}
layer {
  name: "pool6_mbox_conf"
  type: "Convolution"
  bottom: "pool6"
  top: "pool6_mbox_conf"
  param {
    lr_mult: 1
    decay_mult: 1
  }
  param {
    lr_mult: 2
    decay_mult: 0
  }
  convolution_param {
    num_output: 738
    pad: 1
    kernel_size: 3
    stride: 1
    weight_filler {
      type: "xavier"
    }
    bias_filler {
      type: "constant"
      value: 0
    }
  }
}
layer {
  name: "pool6_mbox_conf_perm"
  type: "Permute"
  bottom: "pool6_mbox_conf"
  top: "pool6_mbox_conf_perm"
  permute_param {
    order: 0
    order: 2
    order: 3
    order: 1
  }
}
layer {
  name: "pool6_mbox_conf_flat"
  type: "Flatten"
  bottom: "pool6_mbox_conf_perm"
  top: "pool6_mbox_conf_flat"
  flatten_param {
    axis: 1
  }
}
layer {
  name: "pool6_mbox_priorbox"
  type: "PriorBox"
  bottom: "pool6"
  bottom: "data"
  top: "pool6_mbox_priorbox"
  prior_box_param {
    min_size: 475
    max_size: 555
    aspect_ratio: 2
    aspect_ratio: 3
    flip: true
    clip: true
    variance: 0.1
    variance: 0.1
    variance: 0.2
    variance: 0.2
  }
}
layer {
  name: "mbox_loc"
  type: "Concat"
  bottom: "conv4_3_norm_mbox_loc_flat"
  bottom: "fc7_mbox_loc_flat"
  bottom: "conv6_2_mbox_loc_flat"
  bottom: "conv7_2_mbox_loc_flat"
  bottom: "conv8_2_mbox_loc_flat"
  bottom: "conv9_2_mbox_loc_flat"
  bottom: "pool6_mbox_loc_flat"
  top: "mbox_loc"
  concat_param {
    axis: 1
  }
}
layer {
  name: "mbox_conf"
  type: "Concat"
  bottom: "conv4_3_norm_mbox_conf_flat"
  bottom: "fc7_mbox_conf_flat"
  bottom: "conv6_2_mbox_conf_flat"
  bottom: "conv7_2_mbox_conf_flat"
  bottom: "conv8_2_mbox_conf_flat"
  bottom: "conv9_2_mbox_conf_flat"
  bottom: "pool6_mbox_conf_flat"
  top: "mbox_conf"
  concat_param {
    axis: 1
  }
}
layer {
  name: "mbox_priorbox"
  type: "Concat"
  bottom: "conv4_3_norm_mbox_priorbox"
  bottom: "fc7_mbox_priorbox"
  bottom: "conv6_2_mbox_priorbox"
  bottom: "conv7_2_mbox_priorbox"
  bottom: "conv8_2_mbox_priorbox"
  bottom: "conv9_2_mbox_priorbox"
  bottom: "pool6_mbox_priorbox"
  top: "mbox_priorbox"
  concat_param {
    axis: 2
  }
}
layer {
  name: "mbox_loss"
  type: "MultiBoxLoss"
  bottom: "mbox_loc"
  bottom: "mbox_conf"
  bottom: "mbox_priorbox"
  bottom: "label"
  top: "mbox_loss"
  include {
    phase: TRAIN
  }
  propagate_down: true
  propagate_down: true
  propagate_down: false
  propagate_down: false
  loss_param {
    normalization: VALID
  }
  multibox_loss_param {
    loc_loss_type: SMOOTH_L1
    conf_loss_type: SOFTMAX
    loc_weight: 1
    num_classes: 123
    share_location: true
    match_type: PER_PREDICTION
    overlap_threshold: 0.5
    use_prior_for_matching: true
    background_label_id: 0
    use_difficult_gt: true
    do_neg_mining: true
    neg_pos_ratio: 3
    neg_overlap: 0.5
    code_type: CENTER_SIZE
  }
}
I0419 10:40:17.943578 14438 layer_factory.hpp:77] Creating layer data
I0419 10:40:17.944617 14438 net.cpp:91] Creating Layer data
I0419 10:40:17.944669 14438 net.cpp:399] data -> data
I0419 10:40:17.944734 14438 net.cpp:399] data -> label
I0419 10:40:17.954428 14547 db_lmdb.cpp:35] Opened lmdb /data0/ph/dataset/Food122/lmdb/food122_trainval_lmdb
I0419 10:40:17.991454 14438 annotated_data_layer.cpp:52] output data size: 16,3,500,500
I0419 10:40:18.168272 14438 net.cpp:141] Setting up data
I0419 10:40:18.168354 14438 net.cpp:148] Top shape: 16 3 500 500 (12000000)
I0419 10:40:18.168362 14438 net.cpp:148] Top shape: 1 1 1 8 (8)
I0419 10:40:18.168365 14438 net.cpp:156] Memory required for data: 48000032
I0419 10:40:18.168398 14438 layer_factory.hpp:77] Creating layer data_data_0_split
I0419 10:40:18.168462 14438 net.cpp:91] Creating Layer data_data_0_split
I0419 10:40:18.168475 14438 net.cpp:425] data_data_0_split <- data
I0419 10:40:18.168496 14438 net.cpp:399] data_data_0_split -> data_data_0_split_0
I0419 10:40:18.168516 14438 net.cpp:399] data_data_0_split -> data_data_0_split_1
I0419 10:40:18.168527 14438 net.cpp:399] data_data_0_split -> data_data_0_split_2
I0419 10:40:18.168546 14438 net.cpp:399] data_data_0_split -> data_data_0_split_3
I0419 10:40:18.168555 14438 net.cpp:399] data_data_0_split -> data_data_0_split_4
I0419 10:40:18.168573 14438 net.cpp:399] data_data_0_split -> data_data_0_split_5
I0419 10:40:18.168586 14438 net.cpp:399] data_data_0_split -> data_data_0_split_6
I0419 10:40:18.168602 14438 net.cpp:399] data_data_0_split -> data_data_0_split_7
I0419 10:40:18.168896 14438 net.cpp:141] Setting up data_data_0_split
I0419 10:40:18.168910 14438 net.cpp:148] Top shape: 16 3 500 500 (12000000)
I0419 10:40:18.168917 14438 net.cpp:148] Top shape: 16 3 500 500 (12000000)
I0419 10:40:18.168926 14438 net.cpp:148] Top shape: 16 3 500 500 (12000000)
I0419 10:40:18.168934 14438 net.cpp:148] Top shape: 16 3 500 500 (12000000)
I0419 10:40:18.168941 14438 net.cpp:148] Top shape: 16 3 500 500 (12000000)
I0419 10:40:18.168951 14438 net.cpp:148] Top shape: 16 3 500 500 (12000000)
I0419 10:40:18.168958 14438 net.cpp:148] Top shape: 16 3 500 500 (12000000)
I0419 10:40:18.168967 14438 net.cpp:148] Top shape: 16 3 500 500 (12000000)
I0419 10:40:18.168972 14438 net.cpp:156] Memory required for data: 432000032
I0419 10:40:18.168977 14438 layer_factory.hpp:77] Creating layer conv1_1
I0419 10:40:18.169019 14438 net.cpp:91] Creating Layer conv1_1
I0419 10:40:18.169028 14438 net.cpp:425] conv1_1 <- data_data_0_split_0
I0419 10:40:18.169041 14438 net.cpp:399] conv1_1 -> conv1_1
I0419 10:40:18.208415 14551 blocking_queue.cpp:50] Waiting for data
I0419 10:40:19.379081 14438 net.cpp:141] Setting up conv1_1
I0419 10:40:19.379134 14438 net.cpp:148] Top shape: 16 64 500 500 (256000000)
I0419 10:40:19.379138 14438 net.cpp:156] Memory required for data: 1456000032
I0419 10:40:19.379165 14438 layer_factory.hpp:77] Creating layer relu1_1
I0419 10:40:19.379180 14438 net.cpp:91] Creating Layer relu1_1
I0419 10:40:19.379187 14438 net.cpp:425] relu1_1 <- conv1_1
I0419 10:40:19.379195 14438 net.cpp:386] relu1_1 -> conv1_1 (in-place)
I0419 10:40:19.379395 14438 net.cpp:141] Setting up relu1_1
I0419 10:40:19.379407 14438 net.cpp:148] Top shape: 16 64 500 500 (256000000)
I0419 10:40:19.379412 14438 net.cpp:156] Memory required for data: 2480000032
I0419 10:40:19.379436 14438 layer_factory.hpp:77] Creating layer conv1_2
I0419 10:40:19.379465 14438 net.cpp:91] Creating Layer conv1_2
I0419 10:40:19.379472 14438 net.cpp:425] conv1_2 <- conv1_1
I0419 10:40:19.379478 14438 net.cpp:399] conv1_2 -> conv1_2
I0419 10:40:19.385776 14438 net.cpp:141] Setting up conv1_2
I0419 10:40:19.385795 14438 net.cpp:148] Top shape: 16 64 500 500 (256000000)
I0419 10:40:19.385823 14438 net.cpp:156] Memory required for data: 3504000032
I0419 10:40:19.385833 14438 layer_factory.hpp:77] Creating layer relu1_2
I0419 10:40:19.385841 14438 net.cpp:91] Creating Layer relu1_2
I0419 10:40:19.385844 14438 net.cpp:425] relu1_2 <- conv1_2
I0419 10:40:19.385864 14438 net.cpp:386] relu1_2 -> conv1_2 (in-place)
I0419 10:40:19.386054 14438 net.cpp:141] Setting up relu1_2
I0419 10:40:19.386066 14438 net.cpp:148] Top shape: 16 64 500 500 (256000000)
I0419 10:40:19.386070 14438 net.cpp:156] Memory required for data: 4528000032
I0419 10:40:19.386075 14438 layer_factory.hpp:77] Creating layer pool1
I0419 10:40:19.386090 14438 net.cpp:91] Creating Layer pool1
I0419 10:40:19.386095 14438 net.cpp:425] pool1 <- conv1_2
I0419 10:40:19.386101 14438 net.cpp:399] pool1 -> pool1
I0419 10:40:19.386162 14438 net.cpp:141] Setting up pool1
I0419 10:40:19.386170 14438 net.cpp:148] Top shape: 16 64 250 250 (64000000)
I0419 10:40:19.386175 14438 net.cpp:156] Memory required for data: 4784000032
I0419 10:40:19.386178 14438 layer_factory.hpp:77] Creating layer conv2_1
I0419 10:40:19.386188 14438 net.cpp:91] Creating Layer conv2_1
I0419 10:40:19.386193 14438 net.cpp:425] conv2_1 <- pool1
I0419 10:40:19.386199 14438 net.cpp:399] conv2_1 -> conv2_1
I0419 10:40:19.391846 14438 net.cpp:141] Setting up conv2_1
I0419 10:40:19.391866 14438 net.cpp:148] Top shape: 16 128 250 250 (128000000)
I0419 10:40:19.391870 14438 net.cpp:156] Memory required for data: 5296000032
I0419 10:40:19.391892 14438 layer_factory.hpp:77] Creating layer relu2_1
I0419 10:40:19.391906 14438 net.cpp:91] Creating Layer relu2_1
I0419 10:40:19.391911 14438 net.cpp:425] relu2_1 <- conv2_1
I0419 10:40:19.391918 14438 net.cpp:386] relu2_1 -> conv2_1 (in-place)
I0419 10:40:19.401068 14438 net.cpp:141] Setting up relu2_1
I0419 10:40:19.401113 14438 net.cpp:148] Top shape: 16 128 250 250 (128000000)
I0419 10:40:19.401118 14438 net.cpp:156] Memory required for data: 5808000032
I0419 10:40:19.401124 14438 layer_factory.hpp:77] Creating layer conv2_2
I0419 10:40:19.401141 14438 net.cpp:91] Creating Layer conv2_2
I0419 10:40:19.401145 14438 net.cpp:425] conv2_2 <- conv2_1
I0419 10:40:19.401170 14438 net.cpp:399] conv2_2 -> conv2_2
I0419 10:40:19.406628 14438 net.cpp:141] Setting up conv2_2
I0419 10:40:19.406651 14438 net.cpp:148] Top shape: 16 128 250 250 (128000000)
I0419 10:40:19.406672 14438 net.cpp:156] Memory required for data: 6320000032
I0419 10:40:19.406683 14438 layer_factory.hpp:77] Creating layer relu2_2
I0419 10:40:19.406693 14438 net.cpp:91] Creating Layer relu2_2
I0419 10:40:19.406702 14438 net.cpp:425] relu2_2 <- conv2_2
I0419 10:40:19.406708 14438 net.cpp:386] relu2_2 -> conv2_2 (in-place)
I0419 10:40:19.406913 14438 net.cpp:141] Setting up relu2_2
I0419 10:40:19.406924 14438 net.cpp:148] Top shape: 16 128 250 250 (128000000)
I0419 10:40:19.406929 14438 net.cpp:156] Memory required for data: 6832000032
I0419 10:40:19.406932 14438 layer_factory.hpp:77] Creating layer pool2
I0419 10:40:19.406958 14438 net.cpp:91] Creating Layer pool2
I0419 10:40:19.406963 14438 net.cpp:425] pool2 <- conv2_2
I0419 10:40:19.406975 14438 net.cpp:399] pool2 -> pool2
I0419 10:40:19.407032 14438 net.cpp:141] Setting up pool2
I0419 10:40:19.407040 14438 net.cpp:148] Top shape: 16 128 125 125 (32000000)
I0419 10:40:19.407044 14438 net.cpp:156] Memory required for data: 6960000032
I0419 10:40:19.407048 14438 layer_factory.hpp:77] Creating layer conv3_1
I0419 10:40:19.407060 14438 net.cpp:91] Creating Layer conv3_1
I0419 10:40:19.407066 14438 net.cpp:425] conv3_1 <- pool2
I0419 10:40:19.407073 14438 net.cpp:399] conv3_1 -> conv3_1
I0419 10:40:19.422945 14438 net.cpp:141] Setting up conv3_1
I0419 10:40:19.422999 14438 net.cpp:148] Top shape: 16 256 125 125 (64000000)
I0419 10:40:19.423004 14438 net.cpp:156] Memory required for data: 7216000032
I0419 10:40:19.423025 14438 layer_factory.hpp:77] Creating layer relu3_1
I0419 10:40:19.423039 14438 net.cpp:91] Creating Layer relu3_1
I0419 10:40:19.423046 14438 net.cpp:425] relu3_1 <- conv3_1
I0419 10:40:19.423056 14438 net.cpp:386] relu3_1 -> conv3_1 (in-place)
I0419 10:40:19.423276 14438 net.cpp:141] Setting up relu3_1
I0419 10:40:19.423287 14438 net.cpp:148] Top shape: 16 256 125 125 (64000000)
I0419 10:40:19.423292 14438 net.cpp:156] Memory required for data: 7472000032
I0419 10:40:19.423316 14438 layer_factory.hpp:77] Creating layer conv3_2
I0419 10:40:19.423331 14438 net.cpp:91] Creating Layer conv3_2
I0419 10:40:19.423336 14438 net.cpp:425] conv3_2 <- conv3_1
I0419 10:40:19.423344 14438 net.cpp:399] conv3_2 -> conv3_2
I0419 10:40:19.474197 14438 net.cpp:141] Setting up conv3_2
I0419 10:40:19.474248 14438 net.cpp:148] Top shape: 16 256 125 125 (64000000)
I0419 10:40:19.474252 14438 net.cpp:156] Memory required for data: 7728000032
I0419 10:40:19.474269 14438 layer_factory.hpp:77] Creating layer relu3_2
I0419 10:40:19.474287 14438 net.cpp:91] Creating Layer relu3_2
I0419 10:40:19.474292 14438 net.cpp:425] relu3_2 <- conv3_2
I0419 10:40:19.474301 14438 net.cpp:386] relu3_2 -> conv3_2 (in-place)
I0419 10:40:19.474618 14438 net.cpp:141] Setting up relu3_2
I0419 10:40:19.474630 14438 net.cpp:148] Top shape: 16 256 125 125 (64000000)
I0419 10:40:19.474633 14438 net.cpp:156] Memory required for data: 7984000032
I0419 10:40:19.474637 14438 layer_factory.hpp:77] Creating layer conv3_3
I0419 10:40:19.474658 14438 net.cpp:91] Creating Layer conv3_3
I0419 10:40:19.474663 14438 net.cpp:425] conv3_3 <- conv3_2
I0419 10:40:19.474670 14438 net.cpp:399] conv3_3 -> conv3_3
I0419 10:40:19.498967 14438 net.cpp:141] Setting up conv3_3
I0419 10:40:19.499032 14438 net.cpp:148] Top shape: 16 256 125 125 (64000000)
I0419 10:40:19.499042 14438 net.cpp:156] Memory required for data: 8240000032
I0419 10:40:19.499060 14438 layer_factory.hpp:77] Creating layer relu3_3
I0419 10:40:19.499078 14438 net.cpp:91] Creating Layer relu3_3
I0419 10:40:19.499090 14438 net.cpp:425] relu3_3 <- conv3_3
I0419 10:40:19.499107 14438 net.cpp:386] relu3_3 -> conv3_3 (in-place)
I0419 10:40:19.499920 14438 net.cpp:141] Setting up relu3_3
I0419 10:40:19.499946 14438 net.cpp:148] Top shape: 16 256 125 125 (64000000)
I0419 10:40:19.499964 14438 net.cpp:156] Memory required for data: 8496000032
I0419 10:40:19.499996 14438 layer_factory.hpp:77] Creating layer pool3
I0419 10:40:19.500015 14438 net.cpp:91] Creating Layer pool3
I0419 10:40:19.500023 14438 net.cpp:425] pool3 <- conv3_3
I0419 10:40:19.500059 14438 net.cpp:399] pool3 -> pool3
I0419 10:40:19.500164 14438 net.cpp:141] Setting up pool3
I0419 10:40:19.500180 14438 net.cpp:148] Top shape: 16 256 63 63 (16257024)
I0419 10:40:19.500186 14438 net.cpp:156] Memory required for data: 8561028128
I0419 10:40:19.500195 14438 layer_factory.hpp:77] Creating layer conv4_1
I0419 10:40:19.500217 14438 net.cpp:91] Creating Layer conv4_1
I0419 10:40:19.500226 14438 net.cpp:425] conv4_1 <- pool3
I0419 10:40:19.500239 14438 net.cpp:399] conv4_1 -> conv4_1
I0419 10:40:19.523748 14438 net.cpp:141] Setting up conv4_1
I0419 10:40:19.523802 14438 net.cpp:148] Top shape: 16 512 63 63 (32514048)
I0419 10:40:19.523805 14438 net.cpp:156] Memory required for data: 8691084320
I0419 10:40:19.523819 14438 layer_factory.hpp:77] Creating layer relu4_1
I0419 10:40:19.523834 14438 net.cpp:91] Creating Layer relu4_1
I0419 10:40:19.523840 14438 net.cpp:425] relu4_1 <- conv4_1
I0419 10:40:19.523849 14438 net.cpp:386] relu4_1 -> conv4_1 (in-place)
I0419 10:40:19.524332 14438 net.cpp:141] Setting up relu4_1
I0419 10:40:19.524344 14438 net.cpp:148] Top shape: 16 512 63 63 (32514048)
I0419 10:40:19.524348 14438 net.cpp:156] Memory required for data: 8821140512
I0419 10:40:19.524364 14438 layer_factory.hpp:77] Creating layer conv4_2
I0419 10:40:19.524411 14438 net.cpp:91] Creating Layer conv4_2
I0419 10:40:19.524416 14438 net.cpp:425] conv4_2 <- conv4_1
I0419 10:40:19.524425 14438 net.cpp:399] conv4_2 -> conv4_2
I0419 10:40:19.552245 14438 net.cpp:141] Setting up conv4_2
I0419 10:40:19.552311 14438 net.cpp:148] Top shape: 16 512 63 63 (32514048)
I0419 10:40:19.552316 14438 net.cpp:156] Memory required for data: 8951196704
I0419 10:40:19.552341 14438 layer_factory.hpp:77] Creating layer relu4_2
I0419 10:40:19.552356 14438 net.cpp:91] Creating Layer relu4_2
I0419 10:40:19.552362 14438 net.cpp:425] relu4_2 <- conv4_2
I0419 10:40:19.552371 14438 net.cpp:386] relu4_2 -> conv4_2 (in-place)
I0419 10:40:19.552712 14438 net.cpp:141] Setting up relu4_2
I0419 10:40:19.552726 14438 net.cpp:148] Top shape: 16 512 63 63 (32514048)
I0419 10:40:19.552729 14438 net.cpp:156] Memory required for data: 9081252896
I0419 10:40:19.552745 14438 layer_factory.hpp:77] Creating layer conv4_3
I0419 10:40:19.552763 14438 net.cpp:91] Creating Layer conv4_3
I0419 10:40:19.552767 14438 net.cpp:425] conv4_3 <- conv4_2
I0419 10:40:19.552776 14438 net.cpp:399] conv4_3 -> conv4_3
I0419 10:40:19.583202 14438 net.cpp:141] Setting up conv4_3
I0419 10:40:19.583261 14438 net.cpp:148] Top shape: 16 512 63 63 (32514048)
I0419 10:40:19.583266 14438 net.cpp:156] Memory required for data: 9211309088
I0419 10:40:19.583298 14438 layer_factory.hpp:77] Creating layer relu4_3
I0419 10:40:19.583312 14438 net.cpp:91] Creating Layer relu4_3
I0419 10:40:19.583317 14438 net.cpp:425] relu4_3 <- conv4_3
I0419 10:40:19.583325 14438 net.cpp:386] relu4_3 -> conv4_3 (in-place)
I0419 10:40:19.583530 14438 net.cpp:141] Setting up relu4_3
I0419 10:40:19.583540 14438 net.cpp:148] Top shape: 16 512 63 63 (32514048)
I0419 10:40:19.583544 14438 net.cpp:156] Memory required for data: 9341365280
I0419 10:40:19.583549 14438 layer_factory.hpp:77] Creating layer conv4_3_relu4_3_0_split
I0419 10:40:19.583555 14438 net.cpp:91] Creating Layer conv4_3_relu4_3_0_split
I0419 10:40:19.583559 14438 net.cpp:425] conv4_3_relu4_3_0_split <- conv4_3
I0419 10:40:19.583566 14438 net.cpp:399] conv4_3_relu4_3_0_split -> conv4_3_relu4_3_0_split_0
I0419 10:40:19.583576 14438 net.cpp:399] conv4_3_relu4_3_0_split -> conv4_3_relu4_3_0_split_1
I0419 10:40:19.583629 14438 net.cpp:141] Setting up conv4_3_relu4_3_0_split
I0419 10:40:19.583637 14438 net.cpp:148] Top shape: 16 512 63 63 (32514048)
I0419 10:40:19.583642 14438 net.cpp:148] Top shape: 16 512 63 63 (32514048)
I0419 10:40:19.583645 14438 net.cpp:156] Memory required for data: 9601477664
I0419 10:40:19.583647 14438 layer_factory.hpp:77] Creating layer pool4
I0419 10:40:19.583657 14438 net.cpp:91] Creating Layer pool4
I0419 10:40:19.583662 14438 net.cpp:425] pool4 <- conv4_3_relu4_3_0_split_0
I0419 10:40:19.583668 14438 net.cpp:399] pool4 -> pool4
I0419 10:40:19.583712 14438 net.cpp:141] Setting up pool4
I0419 10:40:19.583719 14438 net.cpp:148] Top shape: 16 512 32 32 (8388608)
I0419 10:40:19.583722 14438 net.cpp:156] Memory required for data: 9635032096
I0419 10:40:19.583725 14438 layer_factory.hpp:77] Creating layer conv5_1
I0419 10:40:19.583746 14438 net.cpp:91] Creating Layer conv5_1
I0419 10:40:19.583751 14438 net.cpp:425] conv5_1 <- pool4
I0419 10:40:19.583760 14438 net.cpp:399] conv5_1 -> conv5_1
I0419 10:40:19.606180 14438 net.cpp:141] Setting up conv5_1
I0419 10:40:19.606235 14438 net.cpp:148] Top shape: 16 512 32 32 (8388608)
I0419 10:40:19.606242 14438 net.cpp:156] Memory required for data: 9668586528
I0419 10:40:19.606261 14438 layer_factory.hpp:77] Creating layer relu5_1
I0419 10:40:19.606278 14438 net.cpp:91] Creating Layer relu5_1
I0419 10:40:19.606287 14438 net.cpp:425] relu5_1 <- conv5_1
I0419 10:40:19.606298 14438 net.cpp:386] relu5_1 -> conv5_1 (in-place)
I0419 10:40:19.606606 14438 net.cpp:141] Setting up relu5_1
I0419 10:40:19.606621 14438 net.cpp:148] Top shape: 16 512 32 32 (8388608)
I0419 10:40:19.606626 14438 net.cpp:156] Memory required for data: 9702140960
I0419 10:40:19.606631 14438 layer_factory.hpp:77] Creating layer conv5_2
I0419 10:40:19.606652 14438 net.cpp:91] Creating Layer conv5_2
I0419 10:40:19.606698 14438 net.cpp:425] conv5_2 <- conv5_1
I0419 10:40:19.606710 14438 net.cpp:399] conv5_2 -> conv5_2
I0419 10:40:19.631479 14438 net.cpp:141] Setting up conv5_2
I0419 10:40:19.631542 14438 net.cpp:148] Top shape: 16 512 32 32 (8388608)
I0419 10:40:19.631546 14438 net.cpp:156] Memory required for data: 9735695392
I0419 10:40:19.631558 14438 layer_factory.hpp:77] Creating layer relu5_2
I0419 10:40:19.631609 14438 net.cpp:91] Creating Layer relu5_2
I0419 10:40:19.631618 14438 net.cpp:425] relu5_2 <- conv5_2
I0419 10:40:19.631628 14438 net.cpp:386] relu5_2 -> conv5_2 (in-place)
I0419 10:40:19.636708 14438 net.cpp:141] Setting up relu5_2
I0419 10:40:19.636751 14438 net.cpp:148] Top shape: 16 512 32 32 (8388608)
I0419 10:40:19.636756 14438 net.cpp:156] Memory required for data: 9769249824
I0419 10:40:19.636765 14438 layer_factory.hpp:77] Creating layer conv5_3
I0419 10:40:19.636791 14438 net.cpp:91] Creating Layer conv5_3
I0419 10:40:19.636799 14438 net.cpp:425] conv5_3 <- conv5_2
I0419 10:40:19.636812 14438 net.cpp:399] conv5_3 -> conv5_3
I0419 10:40:19.674968 14438 net.cpp:141] Setting up conv5_3
I0419 10:40:19.675038 14438 net.cpp:148] Top shape: 16 512 32 32 (8388608)
I0419 10:40:19.675043 14438 net.cpp:156] Memory required for data: 9802804256
I0419 10:40:19.675058 14438 layer_factory.hpp:77] Creating layer relu5_3
I0419 10:40:19.675081 14438 net.cpp:91] Creating Layer relu5_3
I0419 10:40:19.675089 14438 net.cpp:425] relu5_3 <- conv5_3
I0419 10:40:19.675103 14438 net.cpp:386] relu5_3 -> conv5_3 (in-place)
I0419 10:40:19.675312 14438 net.cpp:141] Setting up relu5_3
I0419 10:40:19.675323 14438 net.cpp:148] Top shape: 16 512 32 32 (8388608)
I0419 10:40:19.675326 14438 net.cpp:156] Memory required for data: 9836358688
I0419 10:40:19.675331 14438 layer_factory.hpp:77] Creating layer pool5
I0419 10:40:19.675340 14438 net.cpp:91] Creating Layer pool5
I0419 10:40:19.675350 14438 net.cpp:425] pool5 <- conv5_3
I0419 10:40:19.675359 14438 net.cpp:399] pool5 -> pool5
I0419 10:40:19.675412 14438 net.cpp:141] Setting up pool5
I0419 10:40:19.675421 14438 net.cpp:148] Top shape: 16 512 32 32 (8388608)
I0419 10:40:19.675424 14438 net.cpp:156] Memory required for data: 9869913120
I0419 10:40:19.675432 14438 layer_factory.hpp:77] Creating layer fc6
I0419 10:40:19.675446 14438 net.cpp:91] Creating Layer fc6
I0419 10:40:19.675452 14438 net.cpp:425] fc6 <- pool5
I0419 10:40:19.675460 14438 net.cpp:399] fc6 -> fc6
I0419 10:40:19.714159 14438 net.cpp:141] Setting up fc6
I0419 10:40:19.714221 14438 net.cpp:148] Top shape: 16 1024 32 32 (16777216)
I0419 10:40:19.714227 14438 net.cpp:156] Memory required for data: 9937021984
I0419 10:40:19.714238 14438 layer_factory.hpp:77] Creating layer relu6
I0419 10:40:19.714252 14438 net.cpp:91] Creating Layer relu6
I0419 10:40:19.714257 14438 net.cpp:425] relu6 <- fc6
I0419 10:40:19.714275 14438 net.cpp:386] relu6 -> fc6 (in-place)
I0419 10:40:19.714591 14438 net.cpp:141] Setting up relu6
I0419 10:40:19.714602 14438 net.cpp:148] Top shape: 16 1024 32 32 (16777216)
I0419 10:40:19.714606 14438 net.cpp:156] Memory required for data: 10004130848
I0419 10:40:19.714625 14438 layer_factory.hpp:77] Creating layer fc7
I0419 10:40:19.714640 14438 net.cpp:91] Creating Layer fc7
I0419 10:40:19.714644 14438 net.cpp:425] fc7 <- fc6
I0419 10:40:19.714653 14438 net.cpp:399] fc7 -> fc7
I0419 10:40:19.724414 14438 net.cpp:141] Setting up fc7
I0419 10:40:19.724434 14438 net.cpp:148] Top shape: 16 1024 32 32 (16777216)
I0419 10:40:19.724455 14438 net.cpp:156] Memory required for data: 10071239712
I0419 10:40:19.724467 14438 layer_factory.hpp:77] Creating layer relu7
I0419 10:40:19.724476 14438 net.cpp:91] Creating Layer relu7
I0419 10:40:19.724491 14438 net.cpp:425] relu7 <- fc7
I0419 10:40:19.724498 14438 net.cpp:386] relu7 -> fc7 (in-place)
I0419 10:40:19.724709 14438 net.cpp:141] Setting up relu7
I0419 10:40:19.724720 14438 net.cpp:148] Top shape: 16 1024 32 32 (16777216)
I0419 10:40:19.724728 14438 net.cpp:156] Memory required for data: 10138348576
I0419 10:40:19.724732 14438 layer_factory.hpp:77] Creating layer fc7_relu7_0_split
I0419 10:40:19.724762 14438 net.cpp:91] Creating Layer fc7_relu7_0_split
I0419 10:40:19.724769 14438 net.cpp:425] fc7_relu7_0_split <- fc7
I0419 10:40:19.724776 14438 net.cpp:399] fc7_relu7_0_split -> fc7_relu7_0_split_0
I0419 10:40:19.724795 14438 net.cpp:399] fc7_relu7_0_split -> fc7_relu7_0_split_1
I0419 10:40:19.724804 14438 net.cpp:399] fc7_relu7_0_split -> fc7_relu7_0_split_2
I0419 10:40:19.724812 14438 net.cpp:399] fc7_relu7_0_split -> fc7_relu7_0_split_3
I0419 10:40:19.724896 14438 net.cpp:141] Setting up fc7_relu7_0_split
I0419 10:40:19.724905 14438 net.cpp:148] Top shape: 16 1024 32 32 (16777216)
I0419 10:40:19.724910 14438 net.cpp:148] Top shape: 16 1024 32 32 (16777216)
I0419 10:40:19.724915 14438 net.cpp:148] Top shape: 16 1024 32 32 (16777216)
I0419 10:40:19.724918 14438 net.cpp:148] Top shape: 16 1024 32 32 (16777216)
I0419 10:40:19.724920 14438 net.cpp:156] Memory required for data: 10406784032
I0419 10:40:19.724923 14438 layer_factory.hpp:77] Creating layer conv6_1
I0419 10:40:19.724937 14438 net.cpp:91] Creating Layer conv6_1
I0419 10:40:19.724942 14438 net.cpp:425] conv6_1 <- fc7_relu7_0_split_0
I0419 10:40:19.724951 14438 net.cpp:399] conv6_1 -> conv6_1
I0419 10:40:19.729328 14438 net.cpp:141] Setting up conv6_1
I0419 10:40:19.729346 14438 net.cpp:148] Top shape: 16 256 32 32 (4194304)
I0419 10:40:19.729367 14438 net.cpp:156] Memory required for data: 10423561248
I0419 10:40:19.729377 14438 layer_factory.hpp:77] Creating layer conv6_1_relu
I0419 10:40:19.729384 14438 net.cpp:91] Creating Layer conv6_1_relu
I0419 10:40:19.729391 14438 net.cpp:425] conv6_1_relu <- conv6_1
I0419 10:40:19.729398 14438 net.cpp:386] conv6_1_relu -> conv6_1 (in-place)
I0419 10:40:19.729979 14438 net.cpp:141] Setting up conv6_1_relu
I0419 10:40:19.729991 14438 net.cpp:148] Top shape: 16 256 32 32 (4194304)
I0419 10:40:19.730012 14438 net.cpp:156] Memory required for data: 10440338464
I0419 10:40:19.730016 14438 layer_factory.hpp:77] Creating layer conv6_2
I0419 10:40:19.730027 14438 net.cpp:91] Creating Layer conv6_2
I0419 10:40:19.730031 14438 net.cpp:425] conv6_2 <- conv6_1
I0419 10:40:19.730041 14438 net.cpp:399] conv6_2 -> conv6_2
I0419 10:40:19.741420 14438 net.cpp:141] Setting up conv6_2
I0419 10:40:19.741466 14438 net.cpp:148] Top shape: 16 512 16 16 (2097152)
I0419 10:40:19.741488 14438 net.cpp:156] Memory required for data: 10448727072
I0419 10:40:19.741509 14438 layer_factory.hpp:77] Creating layer conv6_2_relu
I0419 10:40:19.741520 14438 net.cpp:91] Creating Layer conv6_2_relu
I0419 10:40:19.741526 14438 net.cpp:425] conv6_2_relu <- conv6_2
I0419 10:40:19.741533 14438 net.cpp:386] conv6_2_relu -> conv6_2 (in-place)
I0419 10:40:19.744467 14438 net.cpp:141] Setting up conv6_2_relu
I0419 10:40:19.744484 14438 net.cpp:148] Top shape: 16 512 16 16 (2097152)
I0419 10:40:19.744504 14438 net.cpp:156] Memory required for data: 10457115680
I0419 10:40:19.744511 14438 layer_factory.hpp:77] Creating layer conv6_2_conv6_2_relu_0_split
I0419 10:40:19.744521 14438 net.cpp:91] Creating Layer conv6_2_conv6_2_relu_0_split
I0419 10:40:19.744525 14438 net.cpp:425] conv6_2_conv6_2_relu_0_split <- conv6_2
I0419 10:40:19.744534 14438 net.cpp:399] conv6_2_conv6_2_relu_0_split -> conv6_2_conv6_2_relu_0_split_0
I0419 10:40:19.744544 14438 net.cpp:399] conv6_2_conv6_2_relu_0_split -> conv6_2_conv6_2_relu_0_split_1
I0419 10:40:19.744551 14438 net.cpp:399] conv6_2_conv6_2_relu_0_split -> conv6_2_conv6_2_relu_0_split_2
I0419 10:40:19.744558 14438 net.cpp:399] conv6_2_conv6_2_relu_0_split -> conv6_2_conv6_2_relu_0_split_3
I0419 10:40:19.744647 14438 net.cpp:141] Setting up conv6_2_conv6_2_relu_0_split
I0419 10:40:19.744654 14438 net.cpp:148] Top shape: 16 512 16 16 (2097152)
I0419 10:40:19.744659 14438 net.cpp:148] Top shape: 16 512 16 16 (2097152)
I0419 10:40:19.744663 14438 net.cpp:148] Top shape: 16 512 16 16 (2097152)
I0419 10:40:19.744666 14438 net.cpp:148] Top shape: 16 512 16 16 (2097152)
I0419 10:40:19.744668 14438 net.cpp:156] Memory required for data: 10490670112
I0419 10:40:19.744673 14438 layer_factory.hpp:77] Creating layer conv7_1
I0419 10:40:19.744706 14438 net.cpp:91] Creating Layer conv7_1
I0419 10:40:19.744716 14438 net.cpp:425] conv7_1 <- conv6_2_conv6_2_relu_0_split_0
I0419 10:40:19.744724 14438 net.cpp:399] conv7_1 -> conv7_1
I0419 10:40:19.746498 14438 net.cpp:141] Setting up conv7_1
I0419 10:40:19.746513 14438 net.cpp:148] Top shape: 16 128 16 16 (524288)
I0419 10:40:19.746534 14438 net.cpp:156] Memory required for data: 10492767264
I0419 10:40:19.746541 14438 layer_factory.hpp:77] Creating layer conv7_1_relu
I0419 10:40:19.746549 14438 net.cpp:91] Creating Layer conv7_1_relu
I0419 10:40:19.746552 14438 net.cpp:425] conv7_1_relu <- conv7_1
I0419 10:40:19.746574 14438 net.cpp:386] conv7_1_relu -> conv7_1 (in-place)
I0419 10:40:19.746759 14438 net.cpp:141] Setting up conv7_1_relu
I0419 10:40:19.746770 14438 net.cpp:148] Top shape: 16 128 16 16 (524288)
I0419 10:40:19.746794 14438 net.cpp:156] Memory required for data: 10494864416
I0419 10:40:19.746798 14438 layer_factory.hpp:77] Creating layer conv7_2
I0419 10:40:19.746811 14438 net.cpp:91] Creating Layer conv7_2
I0419 10:40:19.746817 14438 net.cpp:425] conv7_2 <- conv7_1
I0419 10:40:19.746824 14438 net.cpp:399] conv7_2 -> conv7_2
I0419 10:40:19.752430 14438 net.cpp:141] Setting up conv7_2
I0419 10:40:19.752447 14438 net.cpp:148] Top shape: 16 256 8 8 (262144)
I0419 10:40:19.752470 14438 net.cpp:156] Memory required for data: 10495912992
I0419 10:40:19.752476 14438 layer_factory.hpp:77] Creating layer conv7_2_relu
I0419 10:40:19.752485 14438 net.cpp:91] Creating Layer conv7_2_relu
I0419 10:40:19.752488 14438 net.cpp:425] conv7_2_relu <- conv7_2
I0419 10:40:19.752498 14438 net.cpp:386] conv7_2_relu -> conv7_2 (in-place)
I0419 10:40:19.752702 14438 net.cpp:141] Setting up conv7_2_relu
I0419 10:40:19.752712 14438 net.cpp:148] Top shape: 16 256 8 8 (262144)
I0419 10:40:19.752717 14438 net.cpp:156] Memory required for data: 10496961568
I0419 10:40:19.752722 14438 layer_factory.hpp:77] Creating layer conv7_2_conv7_2_relu_0_split
I0419 10:40:19.752730 14438 net.cpp:91] Creating Layer conv7_2_conv7_2_relu_0_split
I0419 10:40:19.752735 14438 net.cpp:425] conv7_2_conv7_2_relu_0_split <- conv7_2
I0419 10:40:19.752743 14438 net.cpp:399] conv7_2_conv7_2_relu_0_split -> conv7_2_conv7_2_relu_0_split_0
I0419 10:40:19.752753 14438 net.cpp:399] conv7_2_conv7_2_relu_0_split -> conv7_2_conv7_2_relu_0_split_1
I0419 10:40:19.752760 14438 net.cpp:399] conv7_2_conv7_2_relu_0_split -> conv7_2_conv7_2_relu_0_split_2
I0419 10:40:19.752768 14438 net.cpp:399] conv7_2_conv7_2_relu_0_split -> conv7_2_conv7_2_relu_0_split_3
I0419 10:40:19.752856 14438 net.cpp:141] Setting up conv7_2_conv7_2_relu_0_split
I0419 10:40:19.752864 14438 net.cpp:148] Top shape: 16 256 8 8 (262144)
I0419 10:40:19.752869 14438 net.cpp:148] Top shape: 16 256 8 8 (262144)
I0419 10:40:19.752874 14438 net.cpp:148] Top shape: 16 256 8 8 (262144)
I0419 10:40:19.752880 14438 net.cpp:148] Top shape: 16 256 8 8 (262144)
I0419 10:40:19.752884 14438 net.cpp:156] Memory required for data: 10501155872
I0419 10:40:19.752890 14438 layer_factory.hpp:77] Creating layer conv8_1
I0419 10:40:19.752903 14438 net.cpp:91] Creating Layer conv8_1
I0419 10:40:19.752907 14438 net.cpp:425] conv8_1 <- conv7_2_conv7_2_relu_0_split_0
I0419 10:40:19.752918 14438 net.cpp:399] conv8_1 -> conv8_1
I0419 10:40:19.754405 14438 net.cpp:141] Setting up conv8_1
I0419 10:40:19.754422 14438 net.cpp:148] Top shape: 16 128 8 8 (131072)
I0419 10:40:19.754426 14438 net.cpp:156] Memory required for data: 10501680160
I0419 10:40:19.754433 14438 layer_factory.hpp:77] Creating layer conv8_1_relu
I0419 10:40:19.754441 14438 net.cpp:91] Creating Layer conv8_1_relu
I0419 10:40:19.754446 14438 net.cpp:425] conv8_1_relu <- conv8_1
I0419 10:40:19.754451 14438 net.cpp:386] conv8_1_relu -> conv8_1 (in-place)
I0419 10:40:19.754638 14438 net.cpp:141] Setting up conv8_1_relu
I0419 10:40:19.754649 14438 net.cpp:148] Top shape: 16 128 8 8 (131072)
I0419 10:40:19.754652 14438 net.cpp:156] Memory required for data: 10502204448
I0419 10:40:19.754657 14438 layer_factory.hpp:77] Creating layer conv8_2
I0419 10:40:19.754684 14438 net.cpp:91] Creating Layer conv8_2
I0419 10:40:19.754689 14438 net.cpp:425] conv8_2 <- conv8_1
I0419 10:40:19.754698 14438 net.cpp:399] conv8_2 -> conv8_2
I0419 10:40:19.762993 14438 net.cpp:141] Setting up conv8_2
I0419 10:40:19.763031 14438 net.cpp:148] Top shape: 16 256 4 4 (65536)
I0419 10:40:19.763036 14438 net.cpp:156] Memory required for data: 10502466592
I0419 10:40:19.763042 14438 layer_factory.hpp:77] Creating layer conv8_2_relu
I0419 10:40:19.763051 14438 net.cpp:91] Creating Layer conv8_2_relu
I0419 10:40:19.763054 14438 net.cpp:425] conv8_2_relu <- conv8_2
I0419 10:40:19.763062 14438 net.cpp:386] conv8_2_relu -> conv8_2 (in-place)
I0419 10:40:19.763603 14438 net.cpp:141] Setting up conv8_2_relu
I0419 10:40:19.763618 14438 net.cpp:148] Top shape: 16 256 4 4 (65536)
I0419 10:40:19.763622 14438 net.cpp:156] Memory required for data: 10502728736
I0419 10:40:19.763629 14438 layer_factory.hpp:77] Creating layer conv8_2_conv8_2_relu_0_split
I0419 10:40:19.763638 14438 net.cpp:91] Creating Layer conv8_2_conv8_2_relu_0_split
I0419 10:40:19.763646 14438 net.cpp:425] conv8_2_conv8_2_relu_0_split <- conv8_2
I0419 10:40:19.763655 14438 net.cpp:399] conv8_2_conv8_2_relu_0_split -> conv8_2_conv8_2_relu_0_split_0
I0419 10:40:19.763666 14438 net.cpp:399] conv8_2_conv8_2_relu_0_split -> conv8_2_conv8_2_relu_0_split_1
I0419 10:40:19.763675 14438 net.cpp:399] conv8_2_conv8_2_relu_0_split -> conv8_2_conv8_2_relu_0_split_2
I0419 10:40:19.763686 14438 net.cpp:399] conv8_2_conv8_2_relu_0_split -> conv8_2_conv8_2_relu_0_split_3
I0419 10:40:19.763778 14438 net.cpp:141] Setting up conv8_2_conv8_2_relu_0_split
I0419 10:40:19.763785 14438 net.cpp:148] Top shape: 16 256 4 4 (65536)
I0419 10:40:19.763789 14438 net.cpp:148] Top shape: 16 256 4 4 (65536)
I0419 10:40:19.763795 14438 net.cpp:148] Top shape: 16 256 4 4 (65536)
I0419 10:40:19.763799 14438 net.cpp:148] Top shape: 16 256 4 4 (65536)
I0419 10:40:19.763801 14438 net.cpp:156] Memory required for data: 10503777312
I0419 10:40:19.763804 14438 layer_factory.hpp:77] Creating layer conv9_1
I0419 10:40:19.763816 14438 net.cpp:91] Creating Layer conv9_1
I0419 10:40:19.763823 14438 net.cpp:425] conv9_1 <- conv8_2_conv8_2_relu_0_split_0
I0419 10:40:19.763830 14438 net.cpp:399] conv9_1 -> conv9_1
I0419 10:40:19.765285 14438 net.cpp:141] Setting up conv9_1
I0419 10:40:19.765298 14438 net.cpp:148] Top shape: 16 128 4 4 (32768)
I0419 10:40:19.765321 14438 net.cpp:156] Memory required for data: 10503908384
I0419 10:40:19.765326 14438 layer_factory.hpp:77] Creating layer conv9_1_relu
I0419 10:40:19.765334 14438 net.cpp:91] Creating Layer conv9_1_relu
I0419 10:40:19.765337 14438 net.cpp:425] conv9_1_relu <- conv9_1
I0419 10:40:19.765344 14438 net.cpp:386] conv9_1_relu -> conv9_1 (in-place)
I0419 10:40:19.765561 14438 net.cpp:141] Setting up conv9_1_relu
I0419 10:40:19.765573 14438 net.cpp:148] Top shape: 16 128 4 4 (32768)
I0419 10:40:19.765576 14438 net.cpp:156] Memory required for data: 10504039456
I0419 10:40:19.765584 14438 layer_factory.hpp:77] Creating layer conv9_2
I0419 10:40:19.765599 14438 net.cpp:91] Creating Layer conv9_2
I0419 10:40:19.765604 14438 net.cpp:425] conv9_2 <- conv9_1
I0419 10:40:19.765612 14438 net.cpp:399] conv9_2 -> conv9_2
I0419 10:40:19.769809 14438 net.cpp:141] Setting up conv9_2
I0419 10:40:19.769825 14438 net.cpp:148] Top shape: 16 256 2 2 (16384)
I0419 10:40:19.769845 14438 net.cpp:156] Memory required for data: 10504104992
I0419 10:40:19.769851 14438 layer_factory.hpp:77] Creating layer conv9_2_relu
I0419 10:40:19.769858 14438 net.cpp:91] Creating Layer conv9_2_relu
I0419 10:40:19.769870 14438 net.cpp:425] conv9_2_relu <- conv9_2
I0419 10:40:19.769876 14438 net.cpp:386] conv9_2_relu -> conv9_2 (in-place)
I0419 10:40:19.770076 14438 net.cpp:141] Setting up conv9_2_relu
I0419 10:40:19.770087 14438 net.cpp:148] Top shape: 16 256 2 2 (16384)
I0419 10:40:19.770092 14438 net.cpp:156] Memory required for data: 10504170528
I0419 10:40:19.770094 14438 layer_factory.hpp:77] Creating layer conv9_2_conv9_2_relu_0_split
I0419 10:40:19.770118 14438 net.cpp:91] Creating Layer conv9_2_conv9_2_relu_0_split
I0419 10:40:19.770123 14438 net.cpp:425] conv9_2_conv9_2_relu_0_split <- conv9_2
I0419 10:40:19.770130 14438 net.cpp:399] conv9_2_conv9_2_relu_0_split -> conv9_2_conv9_2_relu_0_split_0
I0419 10:40:19.770139 14438 net.cpp:399] conv9_2_conv9_2_relu_0_split -> conv9_2_conv9_2_relu_0_split_1
I0419 10:40:19.770149 14438 net.cpp:399] conv9_2_conv9_2_relu_0_split -> conv9_2_conv9_2_relu_0_split_2
I0419 10:40:19.770159 14438 net.cpp:399] conv9_2_conv9_2_relu_0_split -> conv9_2_conv9_2_relu_0_split_3
I0419 10:40:19.770247 14438 net.cpp:141] Setting up conv9_2_conv9_2_relu_0_split
I0419 10:40:19.770254 14438 net.cpp:148] Top shape: 16 256 2 2 (16384)
I0419 10:40:19.770259 14438 net.cpp:148] Top shape: 16 256 2 2 (16384)
I0419 10:40:19.770265 14438 net.cpp:148] Top shape: 16 256 2 2 (16384)
I0419 10:40:19.770269 14438 net.cpp:148] Top shape: 16 256 2 2 (16384)
I0419 10:40:19.770272 14438 net.cpp:156] Memory required for data: 10504432672
I0419 10:40:19.770277 14438 layer_factory.hpp:77] Creating layer pool6
I0419 10:40:19.770288 14438 net.cpp:91] Creating Layer pool6
I0419 10:40:19.770293 14438 net.cpp:425] pool6 <- conv9_2_conv9_2_relu_0_split_0
I0419 10:40:19.770300 14438 net.cpp:399] pool6 -> pool6
I0419 10:40:19.770526 14438 net.cpp:141] Setting up pool6
I0419 10:40:19.770537 14438 net.cpp:148] Top shape: 16 256 1 1 (4096)
I0419 10:40:19.770541 14438 net.cpp:156] Memory required for data: 10504449056
I0419 10:40:19.770545 14438 layer_factory.hpp:77] Creating layer pool6_pool6_0_split
I0419 10:40:19.770552 14438 net.cpp:91] Creating Layer pool6_pool6_0_split
I0419 10:40:19.770558 14438 net.cpp:425] pool6_pool6_0_split <- pool6
I0419 10:40:19.770565 14438 net.cpp:399] pool6_pool6_0_split -> pool6_pool6_0_split_0
I0419 10:40:19.770573 14438 net.cpp:399] pool6_pool6_0_split -> pool6_pool6_0_split_1
I0419 10:40:19.770582 14438 net.cpp:399] pool6_pool6_0_split -> pool6_pool6_0_split_2
I0419 10:40:19.770650 14438 net.cpp:141] Setting up pool6_pool6_0_split
I0419 10:40:19.770658 14438 net.cpp:148] Top shape: 16 256 1 1 (4096)
I0419 10:40:19.770663 14438 net.cpp:148] Top shape: 16 256 1 1 (4096)
I0419 10:40:19.770668 14438 net.cpp:148] Top shape: 16 256 1 1 (4096)
I0419 10:40:19.770671 14438 net.cpp:156] Memory required for data: 10504498208
I0419 10:40:19.770675 14438 layer_factory.hpp:77] Creating layer conv4_3_norm
I0419 10:40:19.770684 14438 net.cpp:91] Creating Layer conv4_3_norm
I0419 10:40:19.770689 14438 net.cpp:425] conv4_3_norm <- conv4_3_relu4_3_0_split_1
I0419 10:40:19.770699 14438 net.cpp:399] conv4_3_norm -> conv4_3_norm
I0419 10:40:19.770933 14438 net.cpp:141] Setting up conv4_3_norm
I0419 10:40:19.770943 14438 net.cpp:148] Top shape: 16 512 63 63 (32514048)
I0419 10:40:19.770947 14438 net.cpp:156] Memory required for data: 10634554400
I0419 10:40:19.770954 14438 layer_factory.hpp:77] Creating layer conv4_3_norm_conv4_3_norm_0_split
I0419 10:40:19.770963 14438 net.cpp:91] Creating Layer conv4_3_norm_conv4_3_norm_0_split
I0419 10:40:19.770968 14438 net.cpp:425] conv4_3_norm_conv4_3_norm_0_split <- conv4_3_norm
I0419 10:40:19.770975 14438 net.cpp:399] conv4_3_norm_conv4_3_norm_0_split -> conv4_3_norm_conv4_3_norm_0_split_0
I0419 10:40:19.770984 14438 net.cpp:399] conv4_3_norm_conv4_3_norm_0_split -> conv4_3_norm_conv4_3_norm_0_split_1
I0419 10:40:19.770992 14438 net.cpp:399] conv4_3_norm_conv4_3_norm_0_split -> conv4_3_norm_conv4_3_norm_0_split_2
I0419 10:40:19.771054 14438 net.cpp:141] Setting up conv4_3_norm_conv4_3_norm_0_split
I0419 10:40:19.771061 14438 net.cpp:148] Top shape: 16 512 63 63 (32514048)
I0419 10:40:19.771067 14438 net.cpp:148] Top shape: 16 512 63 63 (32514048)
I0419 10:40:19.771071 14438 net.cpp:148] Top shape: 16 512 63 63 (32514048)
I0419 10:40:19.771075 14438 net.cpp:156] Memory required for data: 11024722976
I0419 10:40:19.771078 14438 layer_factory.hpp:77] Creating layer conv4_3_norm_mbox_loc
I0419 10:40:19.771090 14438 net.cpp:91] Creating Layer conv4_3_norm_mbox_loc
I0419 10:40:19.771095 14438 net.cpp:425] conv4_3_norm_mbox_loc <- conv4_3_norm_conv4_3_norm_0_split_0
I0419 10:40:19.771113 14438 net.cpp:399] conv4_3_norm_mbox_loc -> conv4_3_norm_mbox_loc
I0419 10:40:19.775596 14438 net.cpp:141] Setting up conv4_3_norm_mbox_loc
I0419 10:40:19.775626 14438 net.cpp:148] Top shape: 16 12 63 63 (762048)
I0419 10:40:19.775630 14438 net.cpp:156] Memory required for data: 11027771168
I0419 10:40:19.775640 14438 layer_factory.hpp:77] Creating layer conv4_3_norm_mbox_loc_perm
I0419 10:40:19.775665 14438 net.cpp:91] Creating Layer conv4_3_norm_mbox_loc_perm
I0419 10:40:19.775673 14438 net.cpp:425] conv4_3_norm_mbox_loc_perm <- conv4_3_norm_mbox_loc
I0419 10:40:19.775681 14438 net.cpp:399] conv4_3_norm_mbox_loc_perm -> conv4_3_norm_mbox_loc_perm
I0419 10:40:19.775835 14438 net.cpp:141] Setting up conv4_3_norm_mbox_loc_perm
I0419 10:40:19.775844 14438 net.cpp:148] Top shape: 16 63 63 12 (762048)
I0419 10:40:19.775849 14438 net.cpp:156] Memory required for data: 11030819360
I0419 10:40:19.775856 14438 layer_factory.hpp:77] Creating layer conv4_3_norm_mbox_loc_flat
I0419 10:40:19.775866 14438 net.cpp:91] Creating Layer conv4_3_norm_mbox_loc_flat
I0419 10:40:19.775871 14438 net.cpp:425] conv4_3_norm_mbox_loc_flat <- conv4_3_norm_mbox_loc_perm
I0419 10:40:19.775878 14438 net.cpp:399] conv4_3_norm_mbox_loc_flat -> conv4_3_norm_mbox_loc_flat
I0419 10:40:19.775915 14438 net.cpp:141] Setting up conv4_3_norm_mbox_loc_flat
I0419 10:40:19.775923 14438 net.cpp:148] Top shape: 16 47628 (762048)
I0419 10:40:19.775928 14438 net.cpp:156] Memory required for data: 11033867552
I0419 10:40:19.775931 14438 layer_factory.hpp:77] Creating layer conv4_3_norm_mbox_conf
I0419 10:40:19.775945 14438 net.cpp:91] Creating Layer conv4_3_norm_mbox_conf
I0419 10:40:19.775949 14438 net.cpp:425] conv4_3_norm_mbox_conf <- conv4_3_norm_conv4_3_norm_0_split_1
I0419 10:40:19.775957 14438 net.cpp:399] conv4_3_norm_mbox_conf -> conv4_3_norm_mbox_conf
I0419 10:40:19.791301 14438 net.cpp:141] Setting up conv4_3_norm_mbox_conf
I0419 10:40:19.791321 14438 net.cpp:148] Top shape: 16 369 63 63 (23432976)
I0419 10:40:19.791342 14438 net.cpp:156] Memory required for data: 11127599456
I0419 10:40:19.791349 14438 layer_factory.hpp:77] Creating layer conv4_3_norm_mbox_conf_perm
I0419 10:40:19.791362 14438 net.cpp:91] Creating Layer conv4_3_norm_mbox_conf_perm
I0419 10:40:19.791366 14438 net.cpp:425] conv4_3_norm_mbox_conf_perm <- conv4_3_norm_mbox_conf
I0419 10:40:19.791374 14438 net.cpp:399] conv4_3_norm_mbox_conf_perm -> conv4_3_norm_mbox_conf_perm
I0419 10:40:19.791513 14438 net.cpp:141] Setting up conv4_3_norm_mbox_conf_perm
I0419 10:40:19.791523 14438 net.cpp:148] Top shape: 16 63 63 369 (23432976)
I0419 10:40:19.791527 14438 net.cpp:156] Memory required for data: 11221331360
I0419 10:40:19.791533 14438 layer_factory.hpp:77] Creating layer conv4_3_norm_mbox_conf_flat
I0419 10:40:19.791544 14438 net.cpp:91] Creating Layer conv4_3_norm_mbox_conf_flat
I0419 10:40:19.791551 14438 net.cpp:425] conv4_3_norm_mbox_conf_flat <- conv4_3_norm_mbox_conf_perm
I0419 10:40:19.791558 14438 net.cpp:399] conv4_3_norm_mbox_conf_flat -> conv4_3_norm_mbox_conf_flat
I0419 10:40:19.791594 14438 net.cpp:141] Setting up conv4_3_norm_mbox_conf_flat
I0419 10:40:19.791601 14438 net.cpp:148] Top shape: 16 1464561 (23432976)
I0419 10:40:19.791610 14438 net.cpp:156] Memory required for data: 11315063264
I0419 10:40:19.791612 14438 layer_factory.hpp:77] Creating layer conv4_3_norm_mbox_priorbox
I0419 10:40:19.791622 14438 net.cpp:91] Creating Layer conv4_3_norm_mbox_priorbox
I0419 10:40:19.791625 14438 net.cpp:425] conv4_3_norm_mbox_priorbox <- conv4_3_norm_conv4_3_norm_0_split_2
I0419 10:40:19.791632 14438 net.cpp:425] conv4_3_norm_mbox_priorbox <- data_data_0_split_1
I0419 10:40:19.791640 14438 net.cpp:399] conv4_3_norm_mbox_priorbox -> conv4_3_norm_mbox_priorbox
I0419 10:40:19.791679 14438 net.cpp:141] Setting up conv4_3_norm_mbox_priorbox
I0419 10:40:19.791687 14438 net.cpp:148] Top shape: 1 2 47628 (95256)
I0419 10:40:19.791690 14438 net.cpp:156] Memory required for data: 11315444288
I0419 10:40:19.791693 14438 layer_factory.hpp:77] Creating layer fc7_mbox_loc
I0419 10:40:19.791726 14438 net.cpp:91] Creating Layer fc7_mbox_loc
I0419 10:40:19.791733 14438 net.cpp:425] fc7_mbox_loc <- fc7_relu7_0_split_1
I0419 10:40:19.791744 14438 net.cpp:399] fc7_mbox_loc -> fc7_mbox_loc
I0419 10:40:19.794769 14438 net.cpp:141] Setting up fc7_mbox_loc
I0419 10:40:19.794785 14438 net.cpp:148] Top shape: 16 24 32 32 (393216)
I0419 10:40:19.794790 14438 net.cpp:156] Memory required for data: 11317017152
I0419 10:40:19.794800 14438 layer_factory.hpp:77] Creating layer fc7_mbox_loc_perm
I0419 10:40:19.794811 14438 net.cpp:91] Creating Layer fc7_mbox_loc_perm
I0419 10:40:19.794816 14438 net.cpp:425] fc7_mbox_loc_perm <- fc7_mbox_loc
I0419 10:40:19.794824 14438 net.cpp:399] fc7_mbox_loc_perm -> fc7_mbox_loc_perm
I0419 10:40:19.794965 14438 net.cpp:141] Setting up fc7_mbox_loc_perm
I0419 10:40:19.794975 14438 net.cpp:148] Top shape: 16 32 32 24 (393216)
I0419 10:40:19.794978 14438 net.cpp:156] Memory required for data: 11318590016
I0419 10:40:19.794981 14438 layer_factory.hpp:77] Creating layer fc7_mbox_loc_flat
I0419 10:40:19.794989 14438 net.cpp:91] Creating Layer fc7_mbox_loc_flat
I0419 10:40:19.794994 14438 net.cpp:425] fc7_mbox_loc_flat <- fc7_mbox_loc_perm
I0419 10:40:19.794999 14438 net.cpp:399] fc7_mbox_loc_flat -> fc7_mbox_loc_flat
I0419 10:40:19.795030 14438 net.cpp:141] Setting up fc7_mbox_loc_flat
I0419 10:40:19.795038 14438 net.cpp:148] Top shape: 16 24576 (393216)
I0419 10:40:19.795043 14438 net.cpp:156] Memory required for data: 11320162880
I0419 10:40:19.795045 14438 layer_factory.hpp:77] Creating layer fc7_mbox_conf
I0419 10:40:19.795056 14438 net.cpp:91] Creating Layer fc7_mbox_conf
I0419 10:40:19.795063 14438 net.cpp:425] fc7_mbox_conf <- fc7_relu7_0_split_2
I0419 10:40:19.795071 14438 net.cpp:399] fc7_mbox_conf -> fc7_mbox_conf
I0419 10:40:19.894783 14438 net.cpp:141] Setting up fc7_mbox_conf
I0419 10:40:19.894824 14438 net.cpp:148] Top shape: 16 738 32 32 (12091392)
I0419 10:40:19.894830 14438 net.cpp:156] Memory required for data: 11368528448
I0419 10:40:19.894861 14438 layer_factory.hpp:77] Creating layer fc7_mbox_conf_perm
I0419 10:40:19.894876 14438 net.cpp:91] Creating Layer fc7_mbox_conf_perm
I0419 10:40:19.894888 14438 net.cpp:425] fc7_mbox_conf_perm <- fc7_mbox_conf
I0419 10:40:19.894898 14438 net.cpp:399] fc7_mbox_conf_perm -> fc7_mbox_conf_perm
I0419 10:40:19.895045 14438 net.cpp:141] Setting up fc7_mbox_conf_perm
I0419 10:40:19.895054 14438 net.cpp:148] Top shape: 16 32 32 738 (12091392)
I0419 10:40:19.895057 14438 net.cpp:156] Memory required for data: 11416894016
I0419 10:40:19.895061 14438 layer_factory.hpp:77] Creating layer fc7_mbox_conf_flat
I0419 10:40:19.895069 14438 net.cpp:91] Creating Layer fc7_mbox_conf_flat
I0419 10:40:19.895072 14438 net.cpp:425] fc7_mbox_conf_flat <- fc7_mbox_conf_perm
I0419 10:40:19.895079 14438 net.cpp:399] fc7_mbox_conf_flat -> fc7_mbox_conf_flat
I0419 10:40:19.895110 14438 net.cpp:141] Setting up fc7_mbox_conf_flat
I0419 10:40:19.895117 14438 net.cpp:148] Top shape: 16 755712 (12091392)
I0419 10:40:19.895123 14438 net.cpp:156] Memory required for data: 11465259584
I0419 10:40:19.895125 14438 layer_factory.hpp:77] Creating layer fc7_mbox_priorbox
I0419 10:40:19.895133 14438 net.cpp:91] Creating Layer fc7_mbox_priorbox
I0419 10:40:19.895138 14438 net.cpp:425] fc7_mbox_priorbox <- fc7_relu7_0_split_3
I0419 10:40:19.895143 14438 net.cpp:425] fc7_mbox_priorbox <- data_data_0_split_2
I0419 10:40:19.895150 14438 net.cpp:399] fc7_mbox_priorbox -> fc7_mbox_priorbox
I0419 10:40:19.895187 14438 net.cpp:141] Setting up fc7_mbox_priorbox
I0419 10:40:19.895195 14438 net.cpp:148] Top shape: 1 2 24576 (49152)
I0419 10:40:19.895198 14438 net.cpp:156] Memory required for data: 11465456192
I0419 10:40:19.895207 14438 layer_factory.hpp:77] Creating layer conv6_2_mbox_loc
I0419 10:40:19.895222 14438 net.cpp:91] Creating Layer conv6_2_mbox_loc
I0419 10:40:19.895229 14438 net.cpp:425] conv6_2_mbox_loc <- conv6_2_conv6_2_relu_0_split_1
I0419 10:40:19.895237 14438 net.cpp:399] conv6_2_mbox_loc -> conv6_2_mbox_loc
I0419 10:40:19.899925 14438 net.cpp:141] Setting up conv6_2_mbox_loc
I0419 10:40:19.899966 14438 net.cpp:148] Top shape: 16 24 16 16 (98304)
I0419 10:40:19.899971 14438 net.cpp:156] Memory required for data: 11465849408
I0419 10:40:19.899981 14438 layer_factory.hpp:77] Creating layer conv6_2_mbox_loc_perm
I0419 10:40:19.899991 14438 net.cpp:91] Creating Layer conv6_2_mbox_loc_perm
I0419 10:40:19.899996 14438 net.cpp:425] conv6_2_mbox_loc_perm <- conv6_2_mbox_loc
I0419 10:40:19.900004 14438 net.cpp:399] conv6_2_mbox_loc_perm -> conv6_2_mbox_loc_perm
I0419 10:40:19.900146 14438 net.cpp:141] Setting up conv6_2_mbox_loc_perm
I0419 10:40:19.900156 14438 net.cpp:148] Top shape: 16 16 16 24 (98304)
I0419 10:40:19.900159 14438 net.cpp:156] Memory required for data: 11466242624
I0419 10:40:19.900163 14438 layer_factory.hpp:77] Creating layer conv6_2_mbox_loc_flat
I0419 10:40:19.900171 14438 net.cpp:91] Creating Layer conv6_2_mbox_loc_flat
I0419 10:40:19.900176 14438 net.cpp:425] conv6_2_mbox_loc_flat <- conv6_2_mbox_loc_perm
I0419 10:40:19.900183 14438 net.cpp:399] conv6_2_mbox_loc_flat -> conv6_2_mbox_loc_flat
I0419 10:40:19.900221 14438 net.cpp:141] Setting up conv6_2_mbox_loc_flat
I0419 10:40:19.900228 14438 net.cpp:148] Top shape: 16 6144 (98304)
I0419 10:40:19.900230 14438 net.cpp:156] Memory required for data: 11466635840
I0419 10:40:19.900243 14438 layer_factory.hpp:77] Creating layer conv6_2_mbox_conf
I0419 10:40:19.900257 14438 net.cpp:91] Creating Layer conv6_2_mbox_conf
I0419 10:40:19.900264 14438 net.cpp:425] conv6_2_mbox_conf <- conv6_2_conv6_2_relu_0_split_2
I0419 10:40:19.900271 14438 net.cpp:399] conv6_2_mbox_conf -> conv6_2_mbox_conf
I0419 10:40:19.932951 14438 net.cpp:141] Setting up conv6_2_mbox_conf
I0419 10:40:19.933008 14438 net.cpp:148] Top shape: 16 738 16 16 (3022848)
I0419 10:40:19.933012 14438 net.cpp:156] Memory required for data: 11478727232
I0419 10:40:19.933024 14438 layer_factory.hpp:77] Creating layer conv6_2_mbox_conf_perm
I0419 10:40:19.933038 14438 net.cpp:91] Creating Layer conv6_2_mbox_conf_perm
I0419 10:40:19.933044 14438 net.cpp:425] conv6_2_mbox_conf_perm <- conv6_2_mbox_conf
I0419 10:40:19.933058 14438 net.cpp:399] conv6_2_mbox_conf_perm -> conv6_2_mbox_conf_perm
I0419 10:40:19.933204 14438 net.cpp:141] Setting up conv6_2_mbox_conf_perm
I0419 10:40:19.933213 14438 net.cpp:148] Top shape: 16 16 16 738 (3022848)
I0419 10:40:19.933218 14438 net.cpp:156] Memory required for data: 11490818624
I0419 10:40:19.933221 14438 layer_factory.hpp:77] Creating layer conv6_2_mbox_conf_flat
I0419 10:40:19.933228 14438 net.cpp:91] Creating Layer conv6_2_mbox_conf_flat
I0419 10:40:19.933233 14438 net.cpp:425] conv6_2_mbox_conf_flat <- conv6_2_mbox_conf_perm
I0419 10:40:19.933240 14438 net.cpp:399] conv6_2_mbox_conf_flat -> conv6_2_mbox_conf_flat
I0419 10:40:19.933274 14438 net.cpp:141] Setting up conv6_2_mbox_conf_flat
I0419 10:40:19.933281 14438 net.cpp:148] Top shape: 16 188928 (3022848)
I0419 10:40:19.933286 14438 net.cpp:156] Memory required for data: 11502910016
I0419 10:40:19.933307 14438 layer_factory.hpp:77] Creating layer conv6_2_mbox_priorbox
I0419 10:40:19.933317 14438 net.cpp:91] Creating Layer conv6_2_mbox_priorbox
I0419 10:40:19.933322 14438 net.cpp:425] conv6_2_mbox_priorbox <- conv6_2_conv6_2_relu_0_split_3
I0419 10:40:19.933329 14438 net.cpp:425] conv6_2_mbox_priorbox <- data_data_0_split_3
I0419 10:40:19.933336 14438 net.cpp:399] conv6_2_mbox_priorbox -> conv6_2_mbox_priorbox
I0419 10:40:19.933377 14438 net.cpp:141] Setting up conv6_2_mbox_priorbox
I0419 10:40:19.933385 14438 net.cpp:148] Top shape: 1 2 6144 (12288)
I0419 10:40:19.933389 14438 net.cpp:156] Memory required for data: 11502959168
I0419 10:40:19.933393 14438 layer_factory.hpp:77] Creating layer conv7_2_mbox_loc
I0419 10:40:19.933410 14438 net.cpp:91] Creating Layer conv7_2_mbox_loc
I0419 10:40:19.933416 14438 net.cpp:425] conv7_2_mbox_loc <- conv7_2_conv7_2_relu_0_split_1
I0419 10:40:19.933426 14438 net.cpp:399] conv7_2_mbox_loc -> conv7_2_mbox_loc
I0419 10:40:19.936208 14438 net.cpp:141] Setting up conv7_2_mbox_loc
I0419 10:40:19.936254 14438 net.cpp:148] Top shape: 16 24 8 8 (24576)
I0419 10:40:19.936259 14438 net.cpp:156] Memory required for data: 11503057472
I0419 10:40:19.936269 14438 layer_factory.hpp:77] Creating layer conv7_2_mbox_loc_perm
I0419 10:40:19.936280 14438 net.cpp:91] Creating Layer conv7_2_mbox_loc_perm
I0419 10:40:19.936286 14438 net.cpp:425] conv7_2_mbox_loc_perm <- conv7_2_mbox_loc
I0419 10:40:19.936295 14438 net.cpp:399] conv7_2_mbox_loc_perm -> conv7_2_mbox_loc_perm
I0419 10:40:19.936447 14438 net.cpp:141] Setting up conv7_2_mbox_loc_perm
I0419 10:40:19.936455 14438 net.cpp:148] Top shape: 16 8 8 24 (24576)
I0419 10:40:19.936460 14438 net.cpp:156] Memory required for data: 11503155776
I0419 10:40:19.936472 14438 layer_factory.hpp:77] Creating layer conv7_2_mbox_loc_flat
I0419 10:40:19.936481 14438 net.cpp:91] Creating Layer conv7_2_mbox_loc_flat
I0419 10:40:19.936486 14438 net.cpp:425] conv7_2_mbox_loc_flat <- conv7_2_mbox_loc_perm
I0419 10:40:19.936492 14438 net.cpp:399] conv7_2_mbox_loc_flat -> conv7_2_mbox_loc_flat
I0419 10:40:19.936527 14438 net.cpp:141] Setting up conv7_2_mbox_loc_flat
I0419 10:40:19.936534 14438 net.cpp:148] Top shape: 16 1536 (24576)
I0419 10:40:19.936537 14438 net.cpp:156] Memory required for data: 11503254080
I0419 10:40:19.936539 14438 layer_factory.hpp:77] Creating layer conv7_2_mbox_conf
I0419 10:40:19.936550 14438 net.cpp:91] Creating Layer conv7_2_mbox_conf
I0419 10:40:19.936556 14438 net.cpp:425] conv7_2_mbox_conf <- conv7_2_conv7_2_relu_0_split_2
I0419 10:40:19.936563 14438 net.cpp:399] conv7_2_mbox_conf -> conv7_2_mbox_conf
I0419 10:40:19.955638 14438 net.cpp:141] Setting up conv7_2_mbox_conf
I0419 10:40:19.955699 14438 net.cpp:148] Top shape: 16 738 8 8 (755712)
I0419 10:40:19.955704 14438 net.cpp:156] Memory required for data: 11506276928
I0419 10:40:19.955716 14438 layer_factory.hpp:77] Creating layer conv7_2_mbox_conf_perm
I0419 10:40:19.955730 14438 net.cpp:91] Creating Layer conv7_2_mbox_conf_perm
I0419 10:40:19.955737 14438 net.cpp:425] conv7_2_mbox_conf_perm <- conv7_2_mbox_conf
I0419 10:40:19.955750 14438 net.cpp:399] conv7_2_mbox_conf_perm -> conv7_2_mbox_conf_perm
I0419 10:40:19.955905 14438 net.cpp:141] Setting up conv7_2_mbox_conf_perm
I0419 10:40:19.955914 14438 net.cpp:148] Top shape: 16 8 8 738 (755712)
I0419 10:40:19.955919 14438 net.cpp:156] Memory required for data: 11509299776
I0419 10:40:19.955922 14438 layer_factory.hpp:77] Creating layer conv7_2_mbox_conf_flat
I0419 10:40:19.955950 14438 net.cpp:91] Creating Layer conv7_2_mbox_conf_flat
I0419 10:40:19.955956 14438 net.cpp:425] conv7_2_mbox_conf_flat <- conv7_2_mbox_conf_perm
I0419 10:40:19.955962 14438 net.cpp:399] conv7_2_mbox_conf_flat -> conv7_2_mbox_conf_flat
I0419 10:40:19.956001 14438 net.cpp:141] Setting up conv7_2_mbox_conf_flat
I0419 10:40:19.956008 14438 net.cpp:148] Top shape: 16 47232 (755712)
I0419 10:40:19.956012 14438 net.cpp:156] Memory required for data: 11512322624
I0419 10:40:19.956015 14438 layer_factory.hpp:77] Creating layer conv7_2_mbox_priorbox
I0419 10:40:19.956024 14438 net.cpp:91] Creating Layer conv7_2_mbox_priorbox
I0419 10:40:19.956028 14438 net.cpp:425] conv7_2_mbox_priorbox <- conv7_2_conv7_2_relu_0_split_3
I0419 10:40:19.956034 14438 net.cpp:425] conv7_2_mbox_priorbox <- data_data_0_split_4
I0419 10:40:19.956041 14438 net.cpp:399] conv7_2_mbox_priorbox -> conv7_2_mbox_priorbox
I0419 10:40:19.956084 14438 net.cpp:141] Setting up conv7_2_mbox_priorbox
I0419 10:40:19.956089 14438 net.cpp:148] Top shape: 1 2 1536 (3072)
I0419 10:40:19.956092 14438 net.cpp:156] Memory required for data: 11512334912
I0419 10:40:19.956095 14438 layer_factory.hpp:77] Creating layer conv8_2_mbox_loc
I0419 10:40:19.956110 14438 net.cpp:91] Creating Layer conv8_2_mbox_loc
I0419 10:40:19.956115 14438 net.cpp:425] conv8_2_mbox_loc <- conv8_2_conv8_2_relu_0_split_1
I0419 10:40:19.956122 14438 net.cpp:399] conv8_2_mbox_loc -> conv8_2_mbox_loc
I0419 10:40:19.966167 14438 net.cpp:141] Setting up conv8_2_mbox_loc
I0419 10:40:19.966217 14438 net.cpp:148] Top shape: 16 24 4 4 (6144)
I0419 10:40:19.966220 14438 net.cpp:156] Memory required for data: 11512359488
I0419 10:40:19.966291 14438 layer_factory.hpp:77] Creating layer conv8_2_mbox_loc_perm
I0419 10:40:19.966317 14438 net.cpp:91] Creating Layer conv8_2_mbox_loc_perm
I0419 10:40:19.966327 14438 net.cpp:425] conv8_2_mbox_loc_perm <- conv8_2_mbox_loc
I0419 10:40:19.966342 14438 net.cpp:399] conv8_2_mbox_loc_perm -> conv8_2_mbox_loc_perm
I0419 10:40:19.966588 14438 net.cpp:141] Setting up conv8_2_mbox_loc_perm
I0419 10:40:19.966596 14438 net.cpp:148] Top shape: 16 4 4 24 (6144)
I0419 10:40:19.966600 14438 net.cpp:156] Memory required for data: 11512384064
I0419 10:40:19.966604 14438 layer_factory.hpp:77] Creating layer conv8_2_mbox_loc_flat
I0419 10:40:19.966614 14438 net.cpp:91] Creating Layer conv8_2_mbox_loc_flat
I0419 10:40:19.966619 14438 net.cpp:425] conv8_2_mbox_loc_flat <- conv8_2_mbox_loc_perm
I0419 10:40:19.966626 14438 net.cpp:399] conv8_2_mbox_loc_flat -> conv8_2_mbox_loc_flat
I0419 10:40:19.966660 14438 net.cpp:141] Setting up conv8_2_mbox_loc_flat
I0419 10:40:19.966665 14438 net.cpp:148] Top shape: 16 384 (6144)
I0419 10:40:19.966667 14438 net.cpp:156] Memory required for data: 11512408640
I0419 10:40:19.966671 14438 layer_factory.hpp:77] Creating layer conv8_2_mbox_conf
I0419 10:40:19.966686 14438 net.cpp:91] Creating Layer conv8_2_mbox_conf
I0419 10:40:19.966693 14438 net.cpp:425] conv8_2_mbox_conf <- conv8_2_conv8_2_relu_0_split_2
I0419 10:40:19.966701 14438 net.cpp:399] conv8_2_mbox_conf -> conv8_2_mbox_conf
I0419 10:40:19.997782 14438 net.cpp:141] Setting up conv8_2_mbox_conf
I0419 10:40:19.997851 14438 net.cpp:148] Top shape: 16 738 4 4 (188928)
I0419 10:40:19.997860 14438 net.cpp:156] Memory required for data: 11513164352
I0419 10:40:19.997922 14438 layer_factory.hpp:77] Creating layer conv8_2_mbox_conf_perm
I0419 10:40:19.997952 14438 net.cpp:91] Creating Layer conv8_2_mbox_conf_perm
I0419 10:40:19.997967 14438 net.cpp:425] conv8_2_mbox_conf_perm <- conv8_2_mbox_conf
I0419 10:40:19.997987 14438 net.cpp:399] conv8_2_mbox_conf_perm -> conv8_2_mbox_conf_perm
I0419 10:40:19.998292 14438 net.cpp:141] Setting up conv8_2_mbox_conf_perm
I0419 10:40:19.998312 14438 net.cpp:148] Top shape: 16 4 4 738 (188928)
I0419 10:40:19.998329 14438 net.cpp:156] Memory required for data: 11513920064
I0419 10:40:19.998337 14438 layer_factory.hpp:77] Creating layer conv8_2_mbox_conf_flat
I0419 10:40:19.998351 14438 net.cpp:91] Creating Layer conv8_2_mbox_conf_flat
I0419 10:40:19.998363 14438 net.cpp:425] conv8_2_mbox_conf_flat <- conv8_2_mbox_conf_perm
I0419 10:40:19.998378 14438 net.cpp:399] conv8_2_mbox_conf_flat -> conv8_2_mbox_conf_flat
I0419 10:40:19.998442 14438 net.cpp:141] Setting up conv8_2_mbox_conf_flat
I0419 10:40:19.998457 14438 net.cpp:148] Top shape: 16 11808 (188928)
I0419 10:40:19.998467 14438 net.cpp:156] Memory required for data: 11514675776
I0419 10:40:19.998476 14438 layer_factory.hpp:77] Creating layer conv8_2_mbox_priorbox
I0419 10:40:19.998492 14438 net.cpp:91] Creating Layer conv8_2_mbox_priorbox
I0419 10:40:19.998503 14438 net.cpp:425] conv8_2_mbox_priorbox <- conv8_2_conv8_2_relu_0_split_3
I0419 10:40:19.998517 14438 net.cpp:425] conv8_2_mbox_priorbox <- data_data_0_split_5
I0419 10:40:19.998533 14438 net.cpp:399] conv8_2_mbox_priorbox -> conv8_2_mbox_priorbox
I0419 10:40:19.998608 14438 net.cpp:141] Setting up conv8_2_mbox_priorbox
I0419 10:40:19.998621 14438 net.cpp:148] Top shape: 1 2 384 (768)
I0419 10:40:19.998631 14438 net.cpp:156] Memory required for data: 11514678848
I0419 10:40:19.998648 14438 layer_factory.hpp:77] Creating layer conv9_2_mbox_loc
I0419 10:40:19.998674 14438 net.cpp:91] Creating Layer conv9_2_mbox_loc
I0419 10:40:19.998685 14438 net.cpp:425] conv9_2_mbox_loc <- conv9_2_conv9_2_relu_0_split_1
I0419 10:40:19.998703 14438 net.cpp:399] conv9_2_mbox_loc -> conv9_2_mbox_loc
I0419 10:40:20.004972 14438 net.cpp:141] Setting up conv9_2_mbox_loc
I0419 10:40:20.004997 14438 net.cpp:148] Top shape: 16 24 2 2 (1536)
I0419 10:40:20.005002 14438 net.cpp:156] Memory required for data: 11514684992
I0419 10:40:20.005013 14438 layer_factory.hpp:77] Creating layer conv9_2_mbox_loc_perm
I0419 10:40:20.005060 14438 net.cpp:91] Creating Layer conv9_2_mbox_loc_perm
I0419 10:40:20.005085 14438 net.cpp:425] conv9_2_mbox_loc_perm <- conv9_2_mbox_loc
I0419 10:40:20.005095 14438 net.cpp:399] conv9_2_mbox_loc_perm -> conv9_2_mbox_loc_perm
I0419 10:40:20.005261 14438 net.cpp:141] Setting up conv9_2_mbox_loc_perm
I0419 10:40:20.005272 14438 net.cpp:148] Top shape: 16 2 2 24 (1536)
I0419 10:40:20.005277 14438 net.cpp:156] Memory required for data: 11514691136
I0419 10:40:20.005290 14438 layer_factory.hpp:77] Creating layer conv9_2_mbox_loc_flat
I0419 10:40:20.005300 14438 net.cpp:91] Creating Layer conv9_2_mbox_loc_flat
I0419 10:40:20.005306 14438 net.cpp:425] conv9_2_mbox_loc_flat <- conv9_2_mbox_loc_perm
I0419 10:40:20.005313 14438 net.cpp:399] conv9_2_mbox_loc_flat -> conv9_2_mbox_loc_flat
I0419 10:40:20.005355 14438 net.cpp:141] Setting up conv9_2_mbox_loc_flat
I0419 10:40:20.005364 14438 net.cpp:148] Top shape: 16 96 (1536)
I0419 10:40:20.005368 14438 net.cpp:156] Memory required for data: 11514697280
I0419 10:40:20.005372 14438 layer_factory.hpp:77] Creating layer conv9_2_mbox_conf
I0419 10:40:20.005391 14438 net.cpp:91] Creating Layer conv9_2_mbox_conf
I0419 10:40:20.005398 14438 net.cpp:425] conv9_2_mbox_conf <- conv9_2_conv9_2_relu_0_split_2
I0419 10:40:20.005408 14438 net.cpp:399] conv9_2_mbox_conf -> conv9_2_mbox_conf
I0419 10:40:20.024058 14438 net.cpp:141] Setting up conv9_2_mbox_conf
I0419 10:40:20.024113 14438 net.cpp:148] Top shape: 16 738 2 2 (47232)
I0419 10:40:20.024117 14438 net.cpp:156] Memory required for data: 11514886208
I0419 10:40:20.024129 14438 layer_factory.hpp:77] Creating layer conv9_2_mbox_conf_perm
I0419 10:40:20.024145 14438 net.cpp:91] Creating Layer conv9_2_mbox_conf_perm
I0419 10:40:20.024152 14438 net.cpp:425] conv9_2_mbox_conf_perm <- conv9_2_mbox_conf
I0419 10:40:20.024164 14438 net.cpp:399] conv9_2_mbox_conf_perm -> conv9_2_mbox_conf_perm
I0419 10:40:20.024315 14438 net.cpp:141] Setting up conv9_2_mbox_conf_perm
I0419 10:40:20.024324 14438 net.cpp:148] Top shape: 16 2 2 738 (47232)
I0419 10:40:20.024329 14438 net.cpp:156] Memory required for data: 11515075136
I0419 10:40:20.024334 14438 layer_factory.hpp:77] Creating layer conv9_2_mbox_conf_flat
I0419 10:40:20.024343 14438 net.cpp:91] Creating Layer conv9_2_mbox_conf_flat
I0419 10:40:20.024348 14438 net.cpp:425] conv9_2_mbox_conf_flat <- conv9_2_mbox_conf_perm
I0419 10:40:20.024355 14438 net.cpp:399] conv9_2_mbox_conf_flat -> conv9_2_mbox_conf_flat
I0419 10:40:20.024390 14438 net.cpp:141] Setting up conv9_2_mbox_conf_flat
I0419 10:40:20.024396 14438 net.cpp:148] Top shape: 16 2952 (47232)
I0419 10:40:20.024399 14438 net.cpp:156] Memory required for data: 11515264064
I0419 10:40:20.024402 14438 layer_factory.hpp:77] Creating layer conv9_2_mbox_priorbox
I0419 10:40:20.024422 14438 net.cpp:91] Creating Layer conv9_2_mbox_priorbox
I0419 10:40:20.024428 14438 net.cpp:425] conv9_2_mbox_priorbox <- conv9_2_conv9_2_relu_0_split_3
I0419 10:40:20.024433 14438 net.cpp:425] conv9_2_mbox_priorbox <- data_data_0_split_6
I0419 10:40:20.024443 14438 net.cpp:399] conv9_2_mbox_priorbox -> conv9_2_mbox_priorbox
I0419 10:40:20.024488 14438 net.cpp:141] Setting up conv9_2_mbox_priorbox
I0419 10:40:20.024495 14438 net.cpp:148] Top shape: 1 2 96 (192)
I0419 10:40:20.024497 14438 net.cpp:156] Memory required for data: 11515264832
I0419 10:40:20.024502 14438 layer_factory.hpp:77] Creating layer pool6_mbox_loc
I0419 10:40:20.024515 14438 net.cpp:91] Creating Layer pool6_mbox_loc
I0419 10:40:20.024521 14438 net.cpp:425] pool6_mbox_loc <- pool6_pool6_0_split_0
I0419 10:40:20.024528 14438 net.cpp:399] pool6_mbox_loc -> pool6_mbox_loc
I0419 10:40:20.033535 14438 net.cpp:141] Setting up pool6_mbox_loc
I0419 10:40:20.033581 14438 net.cpp:148] Top shape: 16 24 1 1 (384)
I0419 10:40:20.033584 14438 net.cpp:156] Memory required for data: 11515266368
I0419 10:40:20.033601 14438 layer_factory.hpp:77] Creating layer pool6_mbox_loc_perm
I0419 10:40:20.033622 14438 net.cpp:91] Creating Layer pool6_mbox_loc_perm
I0419 10:40:20.033630 14438 net.cpp:425] pool6_mbox_loc_perm <- pool6_mbox_loc
I0419 10:40:20.033666 14438 net.cpp:399] pool6_mbox_loc_perm -> pool6_mbox_loc_perm
I0419 10:40:20.033936 14438 net.cpp:141] Setting up pool6_mbox_loc_perm
I0419 10:40:20.033958 14438 net.cpp:148] Top shape: 16 1 1 24 (384)
I0419 10:40:20.033962 14438 net.cpp:156] Memory required for data: 11515267904
I0419 10:40:20.033998 14438 layer_factory.hpp:77] Creating layer pool6_mbox_loc_flat
I0419 10:40:20.034008 14438 net.cpp:91] Creating Layer pool6_mbox_loc_flat
I0419 10:40:20.034013 14438 net.cpp:425] pool6_mbox_loc_flat <- pool6_mbox_loc_perm
I0419 10:40:20.034019 14438 net.cpp:399] pool6_mbox_loc_flat -> pool6_mbox_loc_flat
I0419 10:40:20.034059 14438 net.cpp:141] Setting up pool6_mbox_loc_flat
I0419 10:40:20.034065 14438 net.cpp:148] Top shape: 16 24 (384)
I0419 10:40:20.034068 14438 net.cpp:156] Memory required for data: 11515269440
I0419 10:40:20.034073 14438 layer_factory.hpp:77] Creating layer pool6_mbox_conf
I0419 10:40:20.034090 14438 net.cpp:91] Creating Layer pool6_mbox_conf
I0419 10:40:20.034093 14438 net.cpp:425] pool6_mbox_conf <- pool6_pool6_0_split_1
I0419 10:40:20.034102 14438 net.cpp:399] pool6_mbox_conf -> pool6_mbox_conf
I0419 10:40:20.049731 14438 net.cpp:141] Setting up pool6_mbox_conf
I0419 10:40:20.049818 14438 net.cpp:148] Top shape: 16 738 1 1 (11808)
I0419 10:40:20.049823 14438 net.cpp:156] Memory required for data: 11515316672
I0419 10:40:20.049834 14438 layer_factory.hpp:77] Creating layer pool6_mbox_conf_perm
I0419 10:40:20.049850 14438 net.cpp:91] Creating Layer pool6_mbox_conf_perm
I0419 10:40:20.049859 14438 net.cpp:425] pool6_mbox_conf_perm <- pool6_mbox_conf
I0419 10:40:20.049870 14438 net.cpp:399] pool6_mbox_conf_perm -> pool6_mbox_conf_perm
I0419 10:40:20.050029 14438 net.cpp:141] Setting up pool6_mbox_conf_perm
I0419 10:40:20.050038 14438 net.cpp:148] Top shape: 16 1 1 738 (11808)
I0419 10:40:20.050042 14438 net.cpp:156] Memory required for data: 11515363904
I0419 10:40:20.050052 14438 layer_factory.hpp:77] Creating layer pool6_mbox_conf_flat
I0419 10:40:20.050061 14438 net.cpp:91] Creating Layer pool6_mbox_conf_flat
I0419 10:40:20.050067 14438 net.cpp:425] pool6_mbox_conf_flat <- pool6_mbox_conf_perm
I0419 10:40:20.050073 14438 net.cpp:399] pool6_mbox_conf_flat -> pool6_mbox_conf_flat
I0419 10:40:20.050109 14438 net.cpp:141] Setting up pool6_mbox_conf_flat
I0419 10:40:20.050115 14438 net.cpp:148] Top shape: 16 738 (11808)
I0419 10:40:20.050120 14438 net.cpp:156] Memory required for data: 11515411136
I0419 10:40:20.050123 14438 layer_factory.hpp:77] Creating layer pool6_mbox_priorbox
I0419 10:40:20.050133 14438 net.cpp:91] Creating Layer pool6_mbox_priorbox
I0419 10:40:20.050137 14438 net.cpp:425] pool6_mbox_priorbox <- pool6_pool6_0_split_2
I0419 10:40:20.050145 14438 net.cpp:425] pool6_mbox_priorbox <- data_data_0_split_7
I0419 10:40:20.050154 14438 net.cpp:399] pool6_mbox_priorbox -> pool6_mbox_priorbox
I0419 10:40:20.050195 14438 net.cpp:141] Setting up pool6_mbox_priorbox
I0419 10:40:20.050201 14438 net.cpp:148] Top shape: 1 2 24 (48)
I0419 10:40:20.050206 14438 net.cpp:156] Memory required for data: 11515411328
I0419 10:40:20.050209 14438 layer_factory.hpp:77] Creating layer mbox_loc
I0419 10:40:20.050218 14438 net.cpp:91] Creating Layer mbox_loc
I0419 10:40:20.050225 14438 net.cpp:425] mbox_loc <- conv4_3_norm_mbox_loc_flat
I0419 10:40:20.050231 14438 net.cpp:425] mbox_loc <- fc7_mbox_loc_flat
I0419 10:40:20.050237 14438 net.cpp:425] mbox_loc <- conv6_2_mbox_loc_flat
I0419 10:40:20.050242 14438 net.cpp:425] mbox_loc <- conv7_2_mbox_loc_flat
I0419 10:40:20.050248 14438 net.cpp:425] mbox_loc <- conv8_2_mbox_loc_flat
I0419 10:40:20.050254 14438 net.cpp:425] mbox_loc <- conv9_2_mbox_loc_flat
I0419 10:40:20.050259 14438 net.cpp:425] mbox_loc <- pool6_mbox_loc_flat
I0419 10:40:20.050266 14438 net.cpp:399] mbox_loc -> mbox_loc
I0419 10:40:20.050307 14438 net.cpp:141] Setting up mbox_loc
I0419 10:40:20.050316 14438 net.cpp:148] Top shape: 16 80388 (1286208)
I0419 10:40:20.050320 14438 net.cpp:156] Memory required for data: 11520556160
I0419 10:40:20.050346 14438 layer_factory.hpp:77] Creating layer mbox_conf
I0419 10:40:20.050355 14438 net.cpp:91] Creating Layer mbox_conf
I0419 10:40:20.050361 14438 net.cpp:425] mbox_conf <- conv4_3_norm_mbox_conf_flat
I0419 10:40:20.050367 14438 net.cpp:425] mbox_conf <- fc7_mbox_conf_flat
I0419 10:40:20.050372 14438 net.cpp:425] mbox_conf <- conv6_2_mbox_conf_flat
I0419 10:40:20.050379 14438 net.cpp:425] mbox_conf <- conv7_2_mbox_conf_flat
I0419 10:40:20.050384 14438 net.cpp:425] mbox_conf <- conv8_2_mbox_conf_flat
I0419 10:40:20.050390 14438 net.cpp:425] mbox_conf <- conv9_2_mbox_conf_flat
I0419 10:40:20.050395 14438 net.cpp:425] mbox_conf <- pool6_mbox_conf_flat
I0419 10:40:20.050402 14438 net.cpp:399] mbox_conf -> mbox_conf
I0419 10:40:20.050441 14438 net.cpp:141] Setting up mbox_conf
I0419 10:40:20.050448 14438 net.cpp:148] Top shape: 16 2471931 (39550896)
I0419 10:40:20.050452 14438 net.cpp:156] Memory required for data: 11678759744
I0419 10:40:20.050456 14438 layer_factory.hpp:77] Creating layer mbox_priorbox
I0419 10:40:20.050463 14438 net.cpp:91] Creating Layer mbox_priorbox
I0419 10:40:20.050468 14438 net.cpp:425] mbox_priorbox <- conv4_3_norm_mbox_priorbox
I0419 10:40:20.050473 14438 net.cpp:425] mbox_priorbox <- fc7_mbox_priorbox
I0419 10:40:20.050478 14438 net.cpp:425] mbox_priorbox <- conv6_2_mbox_priorbox
I0419 10:40:20.050484 14438 net.cpp:425] mbox_priorbox <- conv7_2_mbox_priorbox
I0419 10:40:20.050489 14438 net.cpp:425] mbox_priorbox <- conv8_2_mbox_priorbox
I0419 10:40:20.050493 14438 net.cpp:425] mbox_priorbox <- conv9_2_mbox_priorbox
I0419 10:40:20.050498 14438 net.cpp:425] mbox_priorbox <- pool6_mbox_priorbox
I0419 10:40:20.050506 14438 net.cpp:399] mbox_priorbox -> mbox_priorbox
I0419 10:40:20.050547 14438 net.cpp:141] Setting up mbox_priorbox
I0419 10:40:20.050555 14438 net.cpp:148] Top shape: 1 2 80388 (160776)
I0419 10:40:20.050559 14438 net.cpp:156] Memory required for data: 11679402848
I0419 10:40:20.050563 14438 layer_factory.hpp:77] Creating layer mbox_loss
I0419 10:40:20.050590 14438 net.cpp:91] Creating Layer mbox_loss
I0419 10:40:20.050595 14438 net.cpp:425] mbox_loss <- mbox_loc
I0419 10:40:20.050599 14438 net.cpp:425] mbox_loss <- mbox_conf
I0419 10:40:20.050604 14438 net.cpp:425] mbox_loss <- mbox_priorbox
…
  name: "data"
  type: "AnnotatedData"
  top: "data"
  top: "label"
  include {
    phase: TEST
  }
  transform_param {
    mean_value: 104
    mean_value: 117
    mean_value: 123
    resize_param {
      prob: 1
      resize_mode: WARP
      height: 500
      width: 500
      interp_mode: LINEAR
    }
  }
  data_param {
    source: "/data0/ph/dataset/Food122/lmdb/food122_test_lmdb"
    batch_size: 1
    backend: LMDB
  }
  annotated_data_param {
    batch_sampler {
    }
    label_map_file: "/data0/ph/dataset/Food122/labelmap_food122.prototxt"
  }
}
layer {
  name: "conv1_1"
  type: "Convolution"
  bottom: "data"
  top: "conv1_1"
  param {
    lr_mult: 0
    decay_mult: 0
  }
  param {
    lr_mult: 0
    decay_mult: 0
  }
  convolution_param {
    num_output: 64
    pad: 1
    kernel_size: 3
    weight_filler {
      type: "xavier"
    }
    bias_filler {
      type: "constant"
      value: 0
    }
  }
}
layer {
  name: "relu1_1"
  type: "ReLU"
  bottom: "conv1_1"
  top: "conv1_1"
}
layer {
  name: "conv1_2"
  type: "Convolution"
  bottom: "conv1_1"
  top: "conv1_2"
  param {
    lr_mult: 0
    decay_mult: 0
  }
  param {
    lr_mult: 0
    decay_mult: 0
  }
  convolution_param {
    num_output: 64
    pad: 1
    kernel_size: 3
    weight_filler {
      type: "xavier"
    }
    bias_filler {
      type: "constant"
      value: 0
    }
  }
}
layer {
  name: "relu1_2"
  type: "ReLU"
  bottom: "conv1_2"
  top: "conv1_2"
}
layer {
  name: "pool1"
  type: "Pooling"
  bottom: "conv1_2"
  top: "pool1"
  pooling_param {
    pool: MAX
    kernel_size: 2
    stride: 2
  }
}
layer {
  name: "conv2_1"
  type: "Convolution"
  bottom: "pool1"
  top: "conv2_1"
  param {
    lr_mult: 0
    decay_mult: 0
  }
  param {
    lr_mult: 0
    decay_mult: 0
  }
  convolution_param {
    num_output: 128
    pad: 1
    kernel_size: 3
    weight_filler {
      type: "xavier"
    }
    bias_filler {
      type: "constant"
      value: 0
    }
  }
}
layer {
  name: "relu2_1"
  type: "ReLU"
  bottom: "conv2_1"
  top: "conv2_1"
}
layer {
  name: "conv2_2"
  type: "Convolution"
  bottom: "conv2_1"
  top: "conv2_2"
  param {
    lr_mult: 0
    decay_mult: 0
  }
  param {
    lr_mult: 0
    decay_mult: 0
  }
  convolution_param {
    num_output: 128
    pad: 1
    kernel_size: 3
    weight_filler {
      type: "xavier"
    }
    bias_filler {
      type: "constant"
      value: 0
    }
  }
}
layer {
  name: "relu2_2"
  type: "ReLU"
  bottom: "conv2_2"
  top: "conv2_2"
}
layer {
  name: "pool2"
  type: "Pooling"
  bottom: "conv2_2"
  top: "pool2"
  pooling_param {
    pool: MAX
    kernel_size: 2
    stride: 2
  }
}
layer {
  name: "conv3_1"
  type: "Convolution"
  bottom: "pool2"
  top: "conv3_1"
  param {
    lr_mult: 1
    decay_mult: 1
  }
  param {
    lr_mult: 2
    decay_mult: 0
  }
  convolution_param {
    num_output: 256
    pad: 1
    kernel_size: 3
    weight_filler {
      type: "xavier"
    }
    bias_filler {
      type: "constant"
      value: 0
    }
  }
}
layer {
  name: "relu3_1"
  type: "ReLU"
  bottom: "conv3_1"
  top: "conv3_1"
}
layer {
  name: "conv3_2"
  type: "Convolution"
  bottom: "conv3_1"
  top: "conv3_2"
  param {
    lr_mult: 1
    decay_mult: 1
  }
  param {
    lr_mult: 2
    decay_mult: 0
  }
  convolution_param {
    num_output: 256
    pad: 1
    kernel_size: 3
    weight_filler {
      type: "xavier"
    }
    bias_filler {
      type: "constant"
      value: 0
    }
  }
}
layer {
  name: "relu3_2"
  type: "ReLU"
  bottom: "conv3_2"
  top: "conv3_2"
}
layer {
  name: "conv3_3"
  type: "Convolution"
  bottom: "conv3_2"
  top: "conv3_3"
  param {
    lr_mult: 1
    decay_mult: 1
  }
  param {
    lr_mult: 2
    decay_mult: 0
  }
  convolution_param {
    num_output: 256
    pad: 1
    kernel_size: 3
    weight_filler {
      type: "xavier"
    }
    bias_filler {
      type: "constant"
      value: 0
    }
  }
}
layer {
  name: "relu3_3"
  type: "ReLU"
  bottom: "conv3_3"
  top: "conv3_3"
}
layer {
  name: "pool3"
  type: "Pooling"
  bottom: "conv3_3"
  top: "pool3"
  pooling_param {
    pool: MAX
    kernel_size: 2
    stride: 2
  }
}
layer {
  name: "conv4_1"
  type: "Convolution"
  bottom: "pool3"
  top: "conv4_1"
  param {
    lr_mult: 1
    decay_mult: 1
  }
  param {
    lr_mult: 2
    decay_mult: 0
  }
  convolution_param {
    num_output: 512
    pad: 1
    kernel_size: 3
    weight_filler {
      type: "xavier"
    }
    bias_filler {
      type: "constant"
      value: 0
    }
  }
}
layer {
  name: "relu4_1"
  type: "ReLU"
  bottom: "conv4_1"
  top: "conv4_1"
}
layer {
  name: "conv4_2"
  type: "Convolution"
  bottom: "conv4_1"
  top: "conv4_2"
  param {
    lr_mult: 1
    decay_mult: 1
  }
  param {
    lr_mult: 2
    decay_mult: 0
  }
  convolution_param {
    num_output: 512
    pad: 1
    kernel_size: 3
    weight_filler {
      type: "xavier"
    }
    bias_filler {
      type: "constant"
      value: 0
    }
  }
}
layer {
  name: "relu4_2"
  type: "ReLU"
  bottom: "conv4_2"
  top: "conv4_2"
}
layer {
  name: "conv4_3"
  type: "Convolution"
  bottom: "conv4_2"
  top: "conv4_3"
  param {
    lr_mult: 1
    decay_mult: 1
  }
  param {
    lr_mult: 2
    decay_mult: 0
  }
  convolution_param {
    num_output: 512
    pad: 1
    kernel_size: 3
    weight_filler {
      type: "xavier"
    }
    bias_filler {
      type: "constant"
      value: 0
    }
  }
}
layer {
  name: "relu4_3"
  type: "ReLU"
  bottom: "conv4_3"
  top: "conv4_3"
}
layer {
  name: "pool4"
  type: "Pooling"
  bottom: "conv4_3"
  top: "pool4"
  pooling_param {
    pool: MAX
    kernel_size: 2
    stride: 2
  }
}
layer {
  name: "conv5_1"
  type: "Convolution"
  bottom: "pool4"
  top: "conv5_1"
  param {
    lr_mult: 1
    decay_mult: 1
  }
  param {
    lr_mult: 2
    decay_mult: 0
  }
  convolution_param {
    num_output: 512
    pad: 1
    kernel_size: 3
    weight_filler {
      type: "xavier"
    }
    bias_filler {
      type: "constant"
      value: 0
    }
  }
}
layer {
  name: "relu5_1"
  type: "ReLU"
  bottom: "conv5_1"
  top: "conv5_1"
}
layer {
  name: "conv5_2"
  type: "Convolution"
  bottom: "conv5_1"
  top: "conv5_2"
  param {
    lr_mult: 1
    decay_mult: 1
  }
  param {
    lr_mult: 2
    decay_mult: 0
  }
  convolution_param {
    num_output: 512
    pad: 1
    kernel_size: 3
    weight_filler {
      type: "xavier"
    }
    bias_filler {
      type: "constant"
      value: 0
    }
  }
}
layer {
  name: "relu5_2"
  type: "ReLU"
  bottom: "conv5_2"
  top: "conv5_2"
}
layer {
  name: "conv5_3"
  type: "Convolution"
  bottom: "conv5_2"
  top: "conv5_3"
  param {
    lr_mult: 1
    decay_mult: 1
  }
  param {
    lr_mult: 2
    decay_mult: 0
  }
  convolution_param {
    num_output: 512
    pad: 1
    kernel_size: 3
    weight_filler {
      type: "xavier"
    }
    bias_filler {
      type: "constant"
      value: 0
    }
  }
}
layer {
  name: "relu5_3"
  type: "ReLU"
  bottom: "conv5_3"
  top: "conv5_3"
}
layer {
  name: "pool5"
  type: "Pooling"
  bottom: "conv5_3"
  top: "pool5"
  pooling_param {
    pool: MAX
    kernel_size: 3
    stride: 1
    pad: 1
  }
}
layer {
  name: "fc6"
  type: "Convolution"
  bottom: "pool5"
  top: "fc6"
  param {
    lr_mult: 1
    decay_mult: 1
  }
  param {
    lr_mult: 2
    decay_mult: 0
  }
  convolution_param {
    num_output: 1024
    pad: 6
    kernel_size: 3
    weight_filler {
      type: "xavier"
    }
    bias_filler {
      type: "constant"
      value: 0
    }
    dilation: 6
  }
}
layer {
  name: "relu6"
  type: "ReLU"
  bottom: "fc6"
  top: "fc6"
}
layer {
  name: "fc7"
  type: "Convolution"
  bottom: "fc6"
  top: "fc7"
  param {
    lr_mult: 1
    decay_mult: 1
  }
  param {
    lr_mult: 2
    decay_mult: 0
  }
  convolution_param {
    num_output: 1024
    kernel_size: 1
    weight_filler {
      type: "xavier"
    }
    bias_filler {
      type: "constant"
      value: 0
    }
  }
}
layer {
  name: "relu7"
  type: "ReLU"
  bottom: "fc7"
  top: "fc7"
}
layer {
  name: "conv6_1"
  type: "Convolution"
  bottom: "fc7"
  top: "conv6_1"
  param {
    lr_mult: 1
    decay_mult: 1
  }
  param {
    lr_mult: 2
    decay_mult: 0
  }
  convolution_param {
    num_output: 256
    pad: 0
    kernel_size: 1
    stride: 1
    weight_filler {
      type: "xavier"
    }
    bias_filler {
      type: "constant"
      value: 0
    }
  }
}
layer {
  name: "conv6_1_relu"
  type: "ReLU"
  bottom: "conv6_1"
  top: "conv6_1"
}
layer {
  name: "conv6_2"
  type: "Convolution"
  bottom: "conv6_1"
  top: "conv6_2"
  param {
    lr_mult: 1
    decay_mult: 1
  }
  param {
    lr_mult: 2
    decay_mult: 0
  }
  convolution_param {
    num_output: 512
    pad: 1
    kernel_size: 3
    stride: 2
    weight_filler {
      type: "xavier"
    }
    bias_filler {
      type: "constant"
      value: 0
    }
  }
}
layer {
  name: "conv6_2_relu"
  type: "ReLU"
  bottom: "conv6_2"
  top: "conv6_2"
}
layer {
  name: "conv7_1"
  type: "Convolution"
  bottom: "conv6_2"
  top: "conv7_1"
  param {
    lr_mult: 1
    decay_mult: 1
  }
  param {
    lr_mult: 2
    decay_mult: 0
  }
  convolution_param {
    num_output: 128
    pad: 0
    kernel_size: 1
    stride: 1
    weight_filler {
      type: "xavier"
    }
    bias_filler {
      type: "constant"
      value: 0
    }
  }
}
layer {
  name: "conv7_1_relu"
  type: "ReLU"
  bottom: "conv7_1"
  top: "conv7_1"
}
layer {
  name: "conv7_2"
  type: "Convolution"
  bottom: "conv7_1"
  top: "conv7_2"
  param {
    lr_mult: 1
    decay_mult: 1
  }
  param {
    lr_mult: 2
    decay_mult: 0
  }
  convolution_param {
    num_output: 256
    pad: 1
    kernel_size: 3
    stride: 2
    weight_filler {
      type: "xavier"
    }
    bias_filler {
      type: "constant"
      value: 0
    }
  }
}
layer {
  name: "conv7_2_relu"
  type: "ReLU"
  bottom: "conv7_2"
  top: "conv7_2"
}
layer {
  name: "conv8_1"
  type: "Convolution"
  bottom: "conv7_2"
  top: "conv8_1"
  param {
    lr_mult: 1
    decay_mult: 1
  }
  param {
    lr_mult: 2
    decay_mult: 0
  }
  convolution_param {
    num_output: 128
    pad: 0
    kernel_size: 1
    stride: 1
    weight_filler {
      type: "xavier"
    }
    bias_filler {
      type: "constant"
      value: 0
    }
  }
}
layer {
  name: "conv8_1_relu"
  type: "ReLU"
  bottom: "conv8_1"
  top: "conv8_1"
}
layer {
  name: "conv8_2"
  type: "Convolution"
  bottom: "conv8_1"
  top: "conv8_2"
  param {
    lr_mult: 1
    decay_mult: 1
  }
  param {
    lr_mult: 2
    decay_mult: 0
  }
  convolution_param {
    num_output: 256
    pad: 1
    kernel_size: 3
    stride: 2
    weight_filler {
      type: "xavier"
    }
    bias_filler {
      type: "constant"
      value: 0
    }
  }
}
layer {
  name: "conv8_2_relu"
  type: "ReLU"
  bottom: "conv8_2"
  top: "conv8_2"
}
layer {
  name: "conv9_1"
  type: "Convolution"
  bottom: "conv8_2"
  top: "conv9_1"
  param {
    lr_mult: 1
    decay_mult: 1
  }
  param {
    lr_mult: 2
    decay_mult: 0
  }
  convolution_param {
    num_output: 128
    pad: 0
    kernel_size: 1
    stride: 1
    weight_filler {
      type: "xavier"
    }
    bias_filler {
      type: "constant"
      value: 0
    }
  }
}
layer {
  name: "conv9_1_relu"
  type: "ReLU"
  bottom: "conv9_1"
  top: "conv9_1"
}
layer {
  name: "conv9_2"
  type: "Convolution"
  bottom: "conv9_1"
  top: "conv9_2"
  param {
    lr_mult: 1
    decay_mult: 1
  }
  param {
    lr_mult: 2
    decay_mult: 0
  }
  convolution_param {
    num_output: 256
    pad: 1
    kernel_size: 3
    stride: 2
    weight_filler {
      type: "xavier"
    }
    bias_filler {
      type: "constant"
      value: 0
    }
  }
}
layer {
  name: "conv9_2_relu"
  type: "ReLU"
  bottom: "conv9_2"
  top: "conv9_2"
}
layer {
  name: "pool6"
  type: "Pooling"
  bottom: "conv9_2"
  top: "pool6"
  pooling_param {
    pool: AVE
    global_pooling: true
  }
}
layer {
  name: "conv4_3_norm"
  type: "Normalize"
  bottom: "conv4_3"
  top: "conv4_3_norm"
  norm_param {
    across_spatial: false
    scale_filler {
      type: "constant"
      value: 20
    }
    channel_shared: false
  }
}
layer {
  name: "conv4_3_norm_mbox_loc"
  type: "Convolution"
  bottom: "conv4_3_norm"
  top: "conv4_3_norm_mbox_loc"
  param {
    lr_mult: 1
    decay_mult: 1
  }
  param {
    lr_mult: 2
    decay_mult: 0
  }
  convolution_param {
    num_output: 12
    pad: 1
    kernel_size: 3
    stride: 1
    weight_filler {
      type: "xavier"
    }
    bias_filler {
      type: "constant"
      value: 0
    }
  }
}
layer {
  name: "conv4_3_norm_mbox_loc_perm"
  type: "Permute"
  bottom: "conv4_3_norm_mbox_loc"
  top: "conv4_3_norm_mbox_loc_perm"
  permute_param {
    order: 0
    order: 2
    order: 3
    order: 1
  }
}
layer {
  name: "conv4_3_norm_mbox_loc_flat"
  type: "Flatten"
  bottom: "conv4_3_norm_mbox_loc_perm"
  top: "conv4_3_norm_mbox_loc_flat"
  flatten_param {
    axis: 1
  }
}
layer {
  name: "conv4_3_norm_mbox_conf"
  type: "Convolution"
  bottom: "conv4_3_norm"
  top: "conv4_3_norm_mbox_conf"
  param {
    lr_mult: 1
    decay_mult: 1
  }
  param {
    lr_mult: 2
    decay_mult: 0
  }
  convolution_param {
    num_output: 369
    pad: 1
    kernel_size: 3
    stride: 1
    weight_filler {
      type: "xavier"
    }
    bias_filler {
      type: "constant"
      value: 0
    }
  }
}
layer {
  name: "conv4_3_norm_mbox_conf_perm"
  type: "Permute"
  bottom: "conv4_3_norm_mbox_conf"
  top: "conv4_3_norm_mbox_conf_perm"
  permute_param {
    order: 0
    order: 2
    order: 3
    order: 1
  }
}
layer {
  name: "conv4_3_norm_mbox_conf_flat"
  type: "Flatten"
  bottom: "conv4_3_norm_mbox_conf_perm"
  top: "conv4_3_norm_mbox_conf_flat"
  flatten_param {
    axis: 1
  }
}
layer {
  name: "conv4_3_norm_mbox_priorbox"
  type: "PriorBox"
  bottom: "conv4_3_norm"
  bottom: "data"
  top: "conv4_3_norm_mbox_priorbox"
  prior_box_param {
    min_size: 35
    aspect_ratio: 2
    flip: true
    clip: true
    variance: 0.1
    variance: 0.1
    variance: 0.2
    variance: 0.2
  }
}
layer {
  name: "fc7_mbox_loc"
  type: "Convolution"
  bottom: "fc7"
  top: "fc7_mbox_loc"
  param {
    lr_mult: 1
    decay_mult: 1
  }
  param {
    lr_mult: 2
    decay_mult: 0
  }
  convolution_param {
    num_output: 24
    pad: 1
    kernel_size: 3
    stride: 1
    weight_filler {
      type: "xavier"
    }
    bias_filler {
      type: "constant"
      value: 0
    }
  }
}
layer {
  name: "fc7_mbox_loc_perm"
  type: "Permute"
  bottom: "fc7_mbox_loc"
  top: "fc7_mbox_loc_perm"
  permute_param {
    order: 0
    order: 2
    order: 3
    order: 1
  }
}
layer {
  name: "fc7_mbox_loc_flat"
  type: "Flatten"
  bottom: "fc7_mbox_loc_perm"
  top: "fc7_mbox_loc_flat"
  flatten_param {
    axis: 1
  }
}
layer {
  name: "fc7_mbox_conf"
  type: "Convolution"
  bottom: "fc7"
  top: "fc7_mbox_conf"
  param {
    lr_mult: 1
    decay_mult: 1
  }
  param {
    lr_mult: 2
    decay_mult: 0
  }
  convolution_param {
    num_output: 738
    pad: 1
    kernel_size: 3
    stride: 1
    weight_filler {
      type: "xavier"
    }
    bias_filler {
      type: "constant"
      value: 0
    }
  }
}
layer {
  name: "fc7_mbox_conf_perm"
  type: "Permute"
  bottom: "fc7_mbox_conf"
  top: "fc7_mbox_conf_perm"
  permute_param {
    order: 0
    order: 2
    order: 3
    order: 1
  }
}
layer {
  name: "fc7_mbox_conf_flat"
  type: "Flatten"
  bottom: "fc7_mbox_conf_perm"
  top: "fc7_mbox_conf_flat"
  flatten_param {
    axis: 1
  }
}
layer {
  name: "fc7_mbox_priorbox"
  type: "PriorBox"
  bottom: "fc7"
  bottom: "data"
  top: "fc7_mbox_priorbox"
  prior_box_param {
    min_size: 75
    max_size: 155
    aspect_ratio: 2
    aspect_ratio: 3
    flip: true
    clip: true
    variance: 0.1
    variance: 0.1
    variance: 0.2
    variance: 0.2
  }
}
layer {
  name: "conv6_2_mbox_loc"
  type: "Convolution"
  bottom: "conv6_2"
  top: "conv6_2_mbox_loc"
  param {
    lr_mult: 1
    decay_mult: 1
  }
  param {
    lr_mult: 2
    decay_mult: 0
  }
  convolution_param {
    num_output: 24
    pad: 1
    kernel_size: 3
    stride: 1
    weight_filler {
      type: "xavier"
    }
    bias_filler {
      type: "constant"
      value: 0
    }
  }
}
layer {
  name: "conv6_2_mbox_loc_perm"
  type: "Permute"
  bottom: "conv6_2_mbox_loc"
  top: "conv6_2_mbox_loc_perm"
  permute_param {
    order: 0
    order: 2
    order: 3
    order: 1
  }
}
layer {
  name: "conv6_2_mbox_loc_flat"
  type: "Flatten"
  bottom: "conv6_2_mbox_loc_perm"
  top: "conv6_2_mbox_loc_flat"
  flatten_param {
    axis: 1
  }
}
layer {
  name: "conv6_2_mbox_conf"
  type: "Convolution"
  bottom: "conv6_2"
  top: "conv6_2_mbox_conf"
  param {
    lr_mult: 1
    decay_mult: 1
  }
  param {
    lr_mult: 2
    decay_mult: 0
  }
  convolution_param {
    num_output: 738
    pad: 1
    kernel_size: 3
    stride: 1
    weight_filler {
      type: "xavier"
    }
    bias_filler {
      type: "constant"
      value: 0
    }
  }
}
layer {
  name: "conv6_2_mbox_conf_perm"
  type: "Permute"
  bottom: "conv6_2_mbox_conf"
  top: "conv6_2_mbox_conf_perm"
  permute_param {
    order: 0
    order: 2
    order: 3
    order: 1
  }
}
layer {
  name: "conv6_2_mbox_conf_flat"
  type: "Flatten"
  bottom: "conv6_2_mbox_conf_perm"
  top: "conv6_2_mbox_conf_flat"
  flatten_param {
    axis: 1
  }
}
layer {
  name: "conv6_2_mbox_priorbox"
  type: "PriorBox"
  bottom: "conv6_2"
  bottom: "data"
  top: "conv6_2_mbox_priorbox"
  prior_box_param {
    min_size: 155
    max_size: 235
    aspect_ratio: 2
    aspect_ratio: 3
    flip: true
    clip: true
    variance: 0.1
    variance: 0.1
    variance: 0.2
    variance: 0.2
  }
}
layer {
  name: "conv7_2_mbox_loc"
  type: "Convolution"
  bottom: "conv7_2"
  top: "conv7_2_mbox_loc"
  param {
    lr_mult: 1
    decay_mult: 1
  }
  param {
    lr_mult: 2
    decay_mult: 0
  }
  convolution_param {
    num_output: 24
    pad: 1
    kernel_size: 3
    stride: 1
    weight_filler {
      type: "xavier"
    }
    bias_filler {
      type: "constant"
      value: 0
    }
  }
}
layer {
  name: "conv7_2_mbox_loc_perm"
  type: "Permute"
  bottom: "conv7_2_mbox_loc"
  top: "conv7_2_mbox_loc_perm"
  permute_param {
    order: 0
    order: 2
    order: 3
    order: 1
  }
}
layer {
  name: "conv7_2_mbox_loc_flat"
  type: "Flatten"
  bottom: "conv7_2_mbox_loc_perm"
  top: "conv7_2_mbox_loc_flat"
  flatten_param {
    axis: 1
  }
}
layer {
  name: "conv7_2_mbox_conf"
  type: "Convolution"
  bottom: "conv7_2"
  top: "conv7_2_mbox_conf"
  param {
    lr_mult: 1
    decay_mult: 1
  }
  param {
    lr_mult: 2
    decay_mult: 0
  }
  convolution_param {
    num_output: 738
    pad: 1
    kernel_size: 3
    stride: 1
    weight_filler {
      type: "xavier"
    }
    bias_filler {
      type: "constant"
      value: 0
    }
  }
}
layer {
  name: "conv7_2_mbox_conf_perm"
  type: "Permute"
  bottom: "conv7_2_mbox_conf"
  top: "conv7_2_mbox_conf_perm"
  permute_param {
    order: 0
    order: 2
    order: 3
    order: 1
  }
}
layer {
  name: "conv7_2_mbox_conf_flat"
  type: "Flatten"
  bottom: "conv7_2_mbox_conf_perm"
  top: "conv7_2_mbox_conf_flat"
  flatten_param {
    axis: 1
  }
}
layer {
  name: "conv7_2_mbox_priorbox"
  type: "PriorBox"
  bottom: "conv7_2"
  bottom: "data"
  top: "conv7_2_mbox_priorbox"
  prior_box_param {
    min_size: 235
    max_size: 315
    aspect_ratio: 2
    aspect_ratio: 3
    flip: true
    clip: true
    variance: 0.1
    variance: 0.1
    variance: 0.2
    variance: 0.2
  }
}
layer {
  name: "conv8_2_mbox_loc"
  type: "Convolution"
  bottom: "conv8_2"
  top: "conv8_2_mbox_loc"
  param {
    lr_mult: 1
    decay_mult: 1
  }
  param {
    lr_mult: 2
    decay_mult: 0
  }
  convolution_param {
    num_output: 24
    pad: 1
    kernel_size: 3
    stride: 1
    weight_filler {
      type: "xavier"
    }
    bias_filler {
      type: "constant"
      value: 0
    }
  }
}
layer {
  name: "conv8_2_mbox_loc_perm"
  type: "Permute"
  bottom: "conv8_2_mbox_loc"
  top: "conv8_2_mbox_loc_perm"
  permute_param {
    order: 0
    order: 2
    order: 3
    order: 1
  }
}
layer {
  name: "conv8_2_mbox_loc_flat"
  type: "Flatten"
  bottom: "conv8_2_mbox_loc_perm"
  top: "conv8_2_mbox_loc_flat"
  flatten_param {
    axis: 1
  }
}
layer {
  name: "conv8_2_mbox_conf"
  type: "Convolution"
  bottom: "conv8_2"
  top: "conv8_2_mbox_conf"
  param {
    lr_mult: 1
    decay_mult: 1
  }
  param {
    lr_mult: 2
    decay_mult: 0
  }
  convolution_param {
    num_output: 738
    pad: 1
    kernel_size: 3
    stride: 1
    weight_filler {
      type: "xavier"
    }
    bias_filler {
      type: "constant"
      value: 0
    }
  }
}
layer {
  name: "conv8_2_mbox_conf_perm"
  type: "Permute"
  bottom: "conv8_2_mbox_conf"
  top: "conv8_2_mbox_conf_perm"
  permute_param {
    order: 0
    order: 2
    order: 3
    order: 1
  }
}
layer {
  name: "conv8_2_mbox_conf_flat"
  type: "Flatten"
  bottom: "conv8_2_mbox_conf_perm"
  top: "conv8_2_mbox_conf_flat"
  flatten_param {
    axis: 1
  }
}
layer {
  name: "conv8_2_mbox_priorbox"
  type: "PriorBox"
  bottom: "conv8_2"
  bottom: "data"
  top: "conv8_2_mbox_priorbox"
  prior_box_param {
    min_size: 315
    max_size: 395
    aspect_ratio: 2
    aspect_ratio: 3
    flip: true
    clip: true
    variance: 0.1
    variance: 0.1
    variance: 0.2
    variance: 0.2
  }
}
layer {
  name: "conv9_2_mbox_loc"
  type: "Convolution"
  bottom: "conv9_2"
  top: "conv9_2_mbox_loc"
  param {
    lr_mult: 1
    decay_mult: 1
  }
  param {
    lr_mult: 2
    decay_mult: 0
  }
  convolution_param {
    num_output: 24
    pad: 1
    kernel_size: 3
    stride: 1
    weight_filler {
      type: "xavier"
    }
    bias_filler {
      type: "constant"
      value: 0
    }
  }
}
layer {
  name: "conv9_2_mbox_loc_perm"
  type: "Permute"
  bottom: "conv9_2_mbox_loc"
  top: "conv9_2_mbox_loc_perm"
  permute_param {
    order: 0
    order: 2
    order: 3
    order: 1
  }
}
layer {
  name: "conv9_2_mbox_loc_flat"
  type: "Flatten"
  bottom: "conv9_2_mbox_loc_perm"
  top: "conv9_2_mbox_loc_flat"
  flatten_param {
    axis: 1
  }
}
layer {
  name: "conv9_2_mbox_conf"
  type: "Convolution"
  bottom: "conv9_2"
  top: "conv9_2_mbox_conf"
  param {
    lr_mult: 1
    decay_mult: 1
  }
  param {
    lr_mult: 2
    decay_mult: 0
  }
  convolution_param {
    num_output: 738
    pad: 1
    kernel_size: 3
    stride: 1
    weight_filler {
      type: "xavier"
    }
    bias_filler {
      type: "constant"
      value: 0
    }
  }
}
layer {
  name: "conv9_2_mbox_conf_perm"
  type: "Permute"
  bottom: "conv9_2_mbox_conf"
  top: "conv9_2_mbox_conf_perm"
  permute_param {
    order: 0
    order: 2
    order: 3
    order: 1
  }
}
layer {
  name: "conv9_2_mbox_conf_flat"
  type: "Flatten"
  bottom: "conv9_2_mbox_conf_perm"
  top: "conv9_2_mbox_conf_flat"
  flatten_param {
    axis: 1
  }
}
layer {
  name: "conv9_2_mbox_priorbox"
  type: "PriorBox"
  bottom: "conv9_2"
  bottom: "data"
  top: "conv9_2_mbox_priorbox"
  prior_box_param {
    min_size: 395
    max_size: 475
    aspect_ratio: 2
    aspect_ratio: 3
    flip: true
    clip: true
    variance: 0.1
    variance: 0.1
    variance: 0.2
    variance: 0.2
  }
}
layer {
  name: "pool6_mbox_loc"
  type: "Convolution"
  bottom: "pool6"
  top: "pool6_mbox_loc"
  param {
    lr_mult: 1
    decay_mult: 1
  }
  param {
    lr_mult: 2
    decay_mult: 0
  }
  convolution_param {
    num_output: 24
    pad: 1
    kernel_size: 3
    stride: 1
    weight_filler {
      type: "xavier"
    }
    bias_filler {
      type: "constant"
      value: 0
    }
  }
}
layer {
  name: "pool6_mbox_loc_perm"
  type: "Permute"
  bottom: "pool6_mbox_loc"
  top: "pool6_mbox_loc_perm"
  permute_param {
    order: 0
    order: 2
    order: 3
    order: 1
  }
}
layer {
  name: "pool6_mbox_loc_flat"
  type: "Flatten"
  bottom: "pool6_mbox_loc_perm"
  top: "pool6_mbox_loc_flat"
  flatten_param {
    axis: 1
  }
}
layer {
  name: "pool6_mbox_conf"
  type: "Convolution"
  bottom: "pool6"
  top: "pool6_mbox_conf"
  param {
    lr_mult: 1
    decay_mult: 1
  }
  param {
    lr_mult: 2
    decay_mult: 0
  }
  convolution_param {
    num_output: 738
    pad: 1
    kernel_size: 3
    stride: 1
    weight_filler {
      type: "xavier"
    }
    bias_filler {
      type: "constant"
      value: 0
    }
  }
}
layer {
  name: "pool6_mbox_conf_perm"
  type: "Permute"
  bottom: "pool6_mbox_conf"
  top: "pool6_mbox_conf_perm"
  permute_param {
    order: 0
    order: 2
    order: 3
    order: 1
  }
}
layer {
  name: "pool6_mbox_conf_flat"
  type: "Flatten"
  bottom: "pool6_mbox_conf_perm"
  top: "pool6_mbox_conf_flat"
  flatten_param {
    axis: 1
  }
}
layer {
  name: "pool6_mbox_priorbox"
  type: "PriorBox"
  bottom: "pool6"
  bottom: "data"
  top: "pool6_mbox_priorbox"
  prior_box_param {
    min_size: 475
    max_size: 555
    aspect_ratio: 2
    aspect_ratio: 3
    flip: true
    clip: true
    variance: 0.1
    variance: 0.1
    variance: 0.2
    variance: 0.2
  }
}
layer {
  name: "mbox_loc"
  type: "Concat"
  bottom: "conv4_3_norm_mbox_loc_flat"
  bottom: "fc7_mbox_loc_flat"
  bottom: "conv6_2_mbox_loc_flat"
  bottom: "conv7_2_mbox_loc_flat"
  bottom: "conv8_2_mbox_loc_flat"
  bottom: "conv9_2_mbox_loc_flat"
  bottom: "pool6_mbox_loc_flat"
  top: "mbox_loc"
  concat_param {
    axis: 1
  }
}
layer {
  name: "mbox_conf"
  type: "Concat"
  bottom: "conv4_3_norm_mbox_conf_flat"
  bottom: "fc7_mbox_conf_flat"
  bottom: "conv6_2_mbox_conf_flat"
  bottom: "conv7_2_mbox_conf_flat"
  bottom: "conv8_2_mbox_conf_flat"
  bottom: "conv9_2_mbox_conf_flat"
  bottom: "pool6_mbox_conf_flat"
  top: "mbox_conf"
  concat_param {
    axis: 1
  }
}
layer {
  name: "mbox_priorbox"
  type: "Concat"
  bottom: "conv4_3_norm_mbox_priorbox"
  bottom: "fc7_mbox_priorbox"
  bottom: "conv6_2_mbox_priorbox"
  bottom: "conv7_2_mbox_priorbox"
  bottom: "conv8_2_mbox_priorbox"
  bottom: "conv9_2_mbox_priorbox"
  bottom: "pool6_mbox_priorbox"
  top: "mbox_priorbox"
  concat_param {
    axis: 2
  }
}
layer {
  name: "mbox_conf_reshape"
  type: "Reshape"
  bottom: "mbox_conf"
  top: "mbox_conf_reshape"
  reshape_param {
    shape {
      dim: 0
      dim: -1
      dim: 123
    }
  }
}
layer {
  name: "mbox_conf_softmax"
  type: "Softmax"
  bottom: "mbox_conf_reshape"
  top: "mbox_conf_softmax"
  softmax_param {
    axis: 2
  }
}
layer {
  name: "mbox_conf_flatten"
  type: "Flatten"
  bottom: "mbox_conf_softmax"
  top: "mbox_conf_flatten"
  flatten_param {
    axis: 1
  }
}
layer {
  name: "detection_out"
  type: "DetectionOutput"
  bottom: "mbox_loc"
  bottom: "mbox_conf_flatten"
  bottom: "mbox_priorbox"
  top: "detection_out"
  include {
    phase: TEST
  }
  detection_output_param {
    num_classes: 123
    share_location: true
    background_label_id: 0
    nms_param {
      nms_threshold: 0.45
      top_k: 400
    }
    save_output_param {
      output_directory: "models/VGGNet/SSD_food122_500x500/Main"
      output_name_prefix: "comp4_det_test_"
      output_format: "VOC"
      label_map_file: "/data0/ph/dataset/Food122/labelmap_food122.prototxt"
      name_size_file: "/data0/ph/dataset/Food122/test_name_size.txt"
      num_test_image: 1162
    }
    code_type: CENTER_SIZE
    keep_top_k: 200
    confidence_threshold: 0.01
  }
}
layer {
  name: "detection_eval"
  type: "DetectionEvaluate"
  bottom: "detection_out"
  bottom: "label"
  top: "detection_eval"
  include {
    phase: TEST
  }
  detection_evaluate_param {
    num_classes: 123
    background_label_id: 0
    overlap_threshold: 0.5
    evaluate_difficult_gt: false
    name_size_file: "/data0/ph/dataset/Food122/test_name_size.txt"
  }
}
I0419 10:40:20.054833 14438 layer_factory.hpp:77] Creating layer data
I0419 10:40:20.055374 14438 net.cpp:91] Creating Layer data
I0419 10:40:20.055410 14438 net.cpp:399] data -> data
I0419 10:40:20.055433 14438 net.cpp:399] data -> label
I0419 10:40:20.057847 14648 db_lmdb.cpp:35] Opened lmdb /data0/ph/dataset/Food122/lmdb/food122_test_lmdb
I0419 10:40:20.061205 14438 annotated_data_layer.cpp:52] output data size: 1,3,500,500
I0419 10:40:20.069933 14438 net.cpp:141] Setting up data
I0419 10:40:20.069995 14438 net.cpp:148] Top shape: 1 3 500 500 (750000)
I0419 10:40:20.070001 14438 net.cpp:148] Top shape: 1 1 1 8 (8)
I0419 10:40:20.070004 14438 net.cpp:156] Memory required for data: 3000032
I0419 10:40:20.070014 14438 layer_factory.hpp:77] Creating layer data_data_0_split
I0419 10:40:20.070034 14438 net.cpp:91] Creating Layer data_data_0_split
I0419 10:40:20.070040 14438 net.cpp:425] data_data_0_split <- data
I0419 10:40:20.070050 14438 net.cpp:399] data_data_0_split -> data_data_0_split_0
I0419 10:40:20.070066 14438 net.cpp:399] data_data_0_split -> data_data_0_split_1
I0419 10:40:20.070075 14438 net.cpp:399] data_data_0_split -> data_data_0_split_2
I0419 10:40:20.070085 14438 net.cpp:399] data_data_0_split -> data_data_0_split_3
I0419 10:40:20.070091 14438 net.cpp:399] data_data_0_split -> data_data_0_split_4
I0419 10:40:20.070099 14438 net.cpp:399] data_data_0_split -> data_data_0_split_5
I0419 10:40:20.070106 14438 net.cpp:399] data_data_0_split -> data_data_0_split_6
I0419 10:40:20.070116 14438 net.cpp:399] data_data_0_split -> data_data_0_split_7
I0419 10:40:20.070654 14438 net.cpp:141] Setting up data_data_0_split
I0419 10:40:20.070698 14438 net.cpp:148] Top shape: 1 3 500 500 (750000)
I0419 10:40:20.070705 14438 net.cpp:148] Top shape: 1 3 500 500 (750000)
I0419 10:40:20.070711 14438 net.cpp:148] Top shape: 1 3 500 500 (750000)
I0419 10:40:20.070717 14438 net.cpp:148] Top shape: 1 3 500 500 (750000)
I0419 10:40:20.070724 14438 net.cpp:148] Top shape: 1 3 500 500 (750000)
I0419 10:40:20.070729 14438 net.cpp:148] Top shape: 1 3 500 500 (750000)
I0419 10:40:20.070734 14438 net.cpp:148] Top shape: 1 3 500 500 (750000)
I0419 10:40:20.070739 14438 net.cpp:148] Top shape: 1 3 500 500 (750000)
I0419 10:40:20.070742 14438 net.cpp:156] Memory required for data: 27000032
I0419 10:40:20.070751 14438 layer_factory.hpp:77] Creating layer conv1_1
I0419 10:40:20.070776 14438 net.cpp:91] Creating Layer conv1_1
I0419 10:40:20.070783 14438 net.cpp:425] conv1_1 <- data_data_0_split_0
I0419 10:40:20.070796 14438 net.cpp:399] conv1_1 -> conv1_1
I0419 10:40:20.074141 14438 net.cpp:141] Setting up conv1_1
I0419 10:40:20.074173 14438 net.cpp:148] Top shape: 1 64 500 500 (16000000)
I0419 10:40:20.074179 14438 net.cpp:156] Memory required for data: 91000032
I0419 10:40:20.074198 14438 layer_factory.hpp:77] Creating layer relu1_1
I0419 10:40:20.074211 14438 net.cpp:91] Creating Layer relu1_1
I0419 10:40:20.074218 14438 net.cpp:425] relu1_1 <- conv1_1
I0419 10:40:20.074225 14438 net.cpp:386] relu1_1 -> conv1_1 (in-place)
I0419 10:40:20.074473 14438 net.cpp:141] Setting up relu1_1
I0419 10:40:20.074484 14438 net.cpp:148] Top shape: 1 64 500 500 (16000000)
I0419 10:40:20.074489 14438 net.cpp:156] Memory required for data: 155000032
I0419 10:40:20.074494 14438 layer_factory.hpp:77] Creating layer conv1_2
I0419 10:40:20.074512 14438 net.cpp:91] Creating Layer conv1_2
I0419 10:40:20.074517 14438 net.cpp:425] conv1_2 <- conv1_1
I0419 10:40:20.074525 14438 net.cpp:399] conv1_2 -> conv1_2
I0419 10:40:20.080626 14438 net.cpp:141] Setting up conv1_2
I0419 10:40:20.080668 14438 net.cpp:148] Top shape: 1 64 500 500 (16000000)
I0419 10:40:20.080672 14438 net.cpp:156] Memory required for data: 219000032
I0419 10:40:20.080687 14438 layer_factory.hpp:77] Creating layer relu1_2
I0419 10:40:20.080701 14438 net.cpp:91] Creating Layer relu1_2
I0419 10:40:20.080706 14438 net.cpp:425] relu1_2 <- conv1_2
I0419 10:40:20.080715 14438 net.cpp:386] relu1_2 -> conv1_2 (in-place)
I0419 10:40:20.081043 14438 net.cpp:141] Setting up relu1_2
I0419 10:40:20.081053 14438 net.cpp:148] Top shape: 1 64 500 500 (16000000)
I0419 10:40:20.081058 14438 net.cpp:156] Memory required for data: 283000032
I0419 10:40:20.081061 14438 layer_factory.hpp:77] Creating layer pool1
I0419 10:40:20.081097 14438 net.cpp:91] Creating Layer pool1
I0419 10:40:20.081101 14438 net.cpp:425] pool1 <- conv1_2
I0419 10:40:20.081120 14438 net.cpp:399] pool1 -> pool1
I0419 10:40:20.081198 14438 net.cpp:141] Setting up pool1
I0419 10:40:20.081207 14438 net.cpp:148] Top shape: 1 64 250 250 (4000000)
I0419 10:40:20.081212 14438 net.cpp:156] Memory required for data: 299000032
I0419 10:40:20.081218 14438 layer_factory.hpp:77] Creating layer conv2_1
I0419 10:40:20.081231 14438 net.cpp:91] Creating Layer conv2_1
I0419 10:40:20.081236 14438 net.cpp:425] conv2_1 <- pool1
I0419 10:40:20.081243 14438 net.cpp:399] conv2_1 -> conv2_1
I0419 10:40:20.087738 14438 net.cpp:141] Setting up conv2_1
I0419 10:40:20.087791 14438 net.cpp:148] Top shape: 1 128 250 250 (8000000)
I0419 10:40:20.087795 14438 net.cpp:156] Memory required for data: 331000032
I0419 10:40:20.087821 14438 layer_factory.hpp:77] Creating layer relu2_1
I0419 10:40:20.087839 14438 net.cpp:91] Creating Layer relu2_1
I0419 10:40:20.087846 14438 net.cpp:425] relu2_1 <- conv2_1
I0419 10:40:20.087855 14438 net.cpp:386] relu2_1 -> conv2_1 (in-place)
I0419 10:40:20.088099 14438 net.cpp:141] Setting up relu2_1
I0419 10:40:20.088111 14438 net.cpp:148] Top shape: 1 128 250 250 (8000000)
I0419 10:40:20.088115 14438 net.cpp:156] Memory required for data: 363000032
I0419 10:40:20.088119 14438 layer_factory.hpp:77] Creating layer conv2_2
I0419 10:40:20.088133 14438 net.cpp:91] Creating Layer conv2_2
I0419 10:40:20.088140 14438 net.cpp:425] conv2_2 <- conv2_1
I0419 10:40:20.088148 14438 net.cpp:399] conv2_2 -> conv2_2
I0419 10:40:20.104604 14438 net.cpp:141] Setting up conv2_2
I0419 10:40:20.104663 14438 net.cpp:148] Top shape: 1 128 250 250 (8000000)
I0419 10:40:20.104671 14438 net.cpp:156] Memory required for data: 395000032
I0419 10:40:20.104691 14438 layer_factory.hpp:77] Creating layer relu2_2
I0419 10:40:20.109305 14438 net.cpp:91] Creating Layer relu2_2
I0419 10:40:20.109339 14438 net.cpp:425] relu2_2 <- conv2_2
I0419 10:40:20.109359 14438 net.cpp:386] relu2_2 -> conv2_2 (in-place)
I0419 10:40:20.116919 14438 net.cpp:141] Setting up relu2_2
I0419 10:40:20.116951 14438 net.cpp:148] Top shape: 1 128 250 250 (8000000)
I0419 10:40:20.116955 14438 net.cpp:156] Memory required for data: 427000032
I0419 10:40:20.116962 14438 layer_factory.hpp:77] Creating layer pool2
I0419 10:40:20.116976 14438 net.cpp:91] Creating Layer pool2
I0419 10:40:20.116983 14438 net.cpp:425] pool2 <- conv2_2
I0419 10:40:20.116992 14438 net.cpp:399] pool2 -> pool2
I0419 10:40:20.117084 14438 net.cpp:141] Setting up pool2
I0419 10:40:20.117091 14438 net.cpp:148] Top shape: 1 128 125 125 (2000000)
I0419 10:40:20.117094 14438 net.cpp:156] Memory required for data: 435000032
I0419 10:40:20.117097 14438 layer_factory.hpp:77] Creating layer conv3_1
I0419 10:40:20.117112 14438 net.cpp:91] Creating Layer conv3_1
I0419 10:40:20.117117 14438 net.cpp:425] conv3_1 <- pool2
I0419 10:40:20.117126 14438 net.cpp:399] conv3_1 -> conv3_1
I0419 10:40:20.123874 14438 net.cpp:141] Setting up conv3_1
I0419 10:40:20.123919 14438 net.cpp:148] Top shape: 1 256 125 125 (4000000)
I0419 10:40:20.123924 14438 net.cpp:156] Memory required for data: 451000032
I0419 10:40:20.123944 14438 layer_factory.hpp:77] Creating layer relu3_1
I0419 10:40:20.123965 14438 net.cpp:91] Creating Layer relu3_1
I0419 10:40:20.123972 14438 net.cpp:425] relu3_1 <- conv3_1
I0419 10:40:20.123980 14438 net.cpp:386] relu3_1 -> conv3_1 (in-place)
I0419 10:40:20.124202 14438 net.cpp:141] Setting up relu3_1
I0419 10:40:20.124213 14438 net.cpp:148] Top shape: 1 256 125 125 (4000000)
I0419 10:40:20.124218 14438 net.cpp:156] Memory required for data: 467000032
I0419 10:40:20.124223 14438 layer_factory.hpp:77] Creating layer conv3_2
I0419 10:40:20.124240 14438 net.cpp:91] Creating Layer conv3_2
I0419 10:40:20.124246 14438 net.cpp:425] conv3_2 <- conv3_1
I0419 10:40:20.124253 14438 net.cpp:399] conv3_2 -> conv3_2
I0419 10:40:20.152941 14438 net.cpp:141] Setting up conv3_2
I0419 10:40:20.153019 14438 net.cpp:148] Top shape: 1 256 125 125 (4000000)
I0419 10:40:20.153072 14438 net.cpp:156] Memory required for data: 483000032
I0419 10:40:20.153127 14438 layer_factory.hpp:77] Creating layer relu3_2
I0419 10:40:20.153158 14438 net.cpp:91] Creating Layer relu3_2
I0419 10:40:20.153174 14438 net.cpp:425] relu3_2 <- conv3_2
I0419 10:40:20.153213 14438 net.cpp:386] relu3_2 -> conv3_2 (in-place)
I0419 10:40:20.153960 14438 net.cpp:141] Setting up relu3_2
I0419 10:40:20.153983 14438 net.cpp:148] Top shape: 1 256 125 125 (4000000)
I0419 10:40:20.154000 14438 net.cpp:156] Memory required for data: 499000032
I0419 10:40:20.154006 14438 layer_factory.hpp:77] Creating layer conv3_3
I0419 10:40:20.154042 14438 net.cpp:91] Creating Layer conv3_3
I0419 10:40:20.154052 14438 net.cpp:425] conv3_3 <- conv3_2
I0419 10:40:20.154067 14438 net.cpp:399] conv3_3 -> conv3_3
I0419 10:40:20.166739 14438 net.cpp:141] Setting up conv3_3
I0419 10:40:20.166782 14438 net.cpp:148] Top shape: 1 256 125 125 (4000000)
I0419 10:40:20.166790 14438 net.cpp:156] Memory required for data: 515000032
I0419 10:40:20.166805 14438 layer_factory.hpp:77] Creating layer relu3_3
I0419 10:40:20.166824 14438 net.cpp:91] Creating Layer relu3_3
I0419 10:40:20.166834 14438 net.cpp:425] relu3_3 <- conv3_3
I0419 10:40:20.166847 14438 net.cpp:386] relu3_3 -> conv3_3 (in-place)
I0419 10:40:20.167251 14438 net.cpp:141] Setting up relu3_3
I0419 10:40:20.167271 14438 net.cpp:148] Top shape: 1 256 125 125 (4000000)
I0419 10:40:20.167280 14438 net.cpp:156] Memory required for data: 531000032
I0419 10:40:20.167289 14438 layer_factory.hpp:77] Creating layer pool3
I0419 10:40:20.167301 14438 net.cpp:91] Creating Layer pool3
I0419 10:40:20.167309 14438 net.cpp:425] pool3 <- conv3_3
I0419 10:40:20.167322 14438 net.cpp:399] pool3 -> pool3
I0419 10:40:20.167443 14438 net.cpp:141] Setting up pool3
I0419 10:40:20.167456 14438 net.cpp:148] Top shape: 1 256 63 63 (1016064)
I0419 10:40:20.167464 14438 net.cpp:156] Memory required for data: 535064288
I0419 10:40:20.167471 14438 layer_factory.hpp:77] Creating layer conv4_1
I0419 10:40:20.167491 14438 net.cpp:91] Creating Layer conv4_1
I0419 10:40:20.167500 14438 net.cpp:425] conv4_1 <- pool3
I0419 10:40:20.167515 14438 net.cpp:399] conv4_1 -> conv4_1
I0419 10:40:20.186997 14438 net.cpp:141] Setting up conv4_1
I0419 10:40:20.187064 14438 net.cpp:148] Top shape: 1 512 63 63 (2032128)
I0419 10:40:20.187072 14438 net.cpp:156] Memory required for data: 543192800
I0419 10:40:20.187088 14438 layer_factory.hpp:77] Creating layer relu4_1
I0419 10:40:20.187108 14438 net.cpp:91] Creating Layer relu4_1
I0419 10:40:20.187115 14438 net.cpp:425] relu4_1 <- conv4_1
I0419 10:40:20.187136 14438 net.cpp:386] relu4_1 -> conv4_1 (in-place)
I0419 10:40:20.187954 14438 net.cpp:141] Setting up relu4_1
I0419 10:40:20.187978 14438 net.cpp:148] Top shape: 1 512 63 63 (2032128)
I0419 10:40:20.187995 14438 net.cpp:156] Memory required for data: 551321312
I0419 10:40:20.188001 14438 layer_factory.hpp:77] Creating layer conv4_2
I0419 10:40:20.188021 14438 net.cpp:91] Creating Layer conv4_2
I0419 10:40:20.188031 14438 net.cpp:425] conv4_2 <- conv4_1
I0419 10:40:20.188046 14438 net.cpp:399] conv4_2 -> conv4_2
I0419 10:40:20.247915 14438 net.cpp:141] Setting up conv4_2
I0419 10:40:20.247980 14438 net.cpp:148] Top shape: 1 512 63 63 (2032128)
I0419 10:40:20.247989 14438 net.cpp:156] Memory required for data: 559449824
I0419 10:40:20.248018 14438 layer_factory.hpp:77] Creating layer relu4_2
I0419 10:40:20.248039 14438 net.cpp:91] Creating Layer relu4_2
I0419 10:40:20.248052 14438 net.cpp:425] relu4_2 <- conv4_2
I0419 10:40:20.248064 14438 net.cpp:386] relu4_2 -> conv4_2 (in-place)
I0419 10:40:20.252367 14438 net.cpp:141] Setting up relu4_2
I0419 10:40:20.252441 14438 net.cpp:148] Top shape: 1 512 63 63 (2032128)
I0419 10:40:20.252449 14438 net.cpp:156] Memory required for data: 567578336
I0419 10:40:20.252461 14438 layer_factory.hpp:77] Creating layer conv4_3
I0419 10:40:20.252496 14438 net.cpp:91] Creating Layer conv4_3
I0419 10:40:20.252507 14438 net.cpp:425] conv4_3 <- conv4_2
I0419 10:40:20.252526 14438 net.cpp:399] conv4_3 -> conv4_3
I0419 10:40:20.291155 14438 net.cpp:141] Setting up conv4_3
I0419 10:40:20.291224 14438 net.cpp:148] Top shape: 1 512 63 63 (2032128)
I0419 10:40:20.291230 14438 net.cpp:156] Memory required for data: 575706848
I0419 10:40:20.291246 14438 layer_factory.hpp:77] Creating layer relu4_3
I0419 10:40:20.291265 14438 net.cpp:91] Creating Layer relu4_3
I0419 10:40:20.291275 14438 net.cpp:425] relu4_3 <- conv4_3
I0419 10:40:20.291288 14438 net.cpp:386] relu4_3 -> conv4_3 (in-place)
I0419 10:40:20.291644 14438 net.cpp:141] Setting up relu4_3
I0419 10:40:20.291663 14438 net.cpp:148] Top shape: 1 512 63 63 (2032128)
I0419 10:40:20.291680 14438 net.cpp:156] Memory required for data: 583835360
I0419 10:40:20.291685 14438 layer_factory.hpp:77] Creating layer conv4_3_relu4_3_0_split
I0419 10:40:20.291697 14438 net.cpp:91] Creating Layer conv4_3_relu4_3_0_split
I0419 10:40:20.291704 14438 net.cpp:425] conv4_3_relu4_3_0_split <- conv4_3
I0419 10:40:20.291714 14438 net.cpp:399] conv4_3_relu4_3_0_split -> conv4_3_relu4_3_0_split_0
I0419 10:40:20.291731 14438 net.cpp:399] conv4_3_relu4_3_0_split -> conv4_3_relu4_3_0_split_1
I0419 10:40:20.291831 14438 net.cpp:141] Setting up conv4_3_relu4_3_0_split
I0419 10:40:20.291842 14438 net.cpp:148] Top shape: 1 512 63 63 (2032128)
I0419 10:40:20.291851 14438 net.cpp:148] Top shape: 1 512 63 63 (2032128)
I0419 10:40:20.291857 14438 net.cpp:156] Memory required for data: 600092384
I0419 10:40:20.291863 14438 layer_factory.hpp:77] Creating layer pool4
I0419 10:40:20.291878 14438 net.cpp:91] Creating Layer pool4
I0419 10:40:20.291885 14438 net.cpp:425] pool4 <- conv4_3_relu4_3_0_split_0
I0419 10:40:20.291896 14438 net.cpp:399] pool4 -> pool4
I0419 10:40:20.291990 14438 net.cpp:141] Setting up pool4
I0419 10:40:20.292001 14438 net.cpp:148] Top shape: 1 512 32 32 (524288)
I0419 10:40:20.292006 14438 net.cpp:156] Memory required for data: 602189536
I0419 10:40:20.292013 14438 layer_factory.hpp:77] Creating layer conv5_1
I0419 10:40:20.292033 14438 net.cpp:91] Creating Layer conv5_1
I0419 10:40:20.292042 14438 net.cpp:425] conv5_1 <- pool4
I0419 10:40:20.292054 14438 net.cpp:399] conv5_1 -> conv5_1
I0419 10:40:20.323005 14438 net.cpp:141] Setting up conv5_1
I0419 10:40:20.323053 14438 net.cpp:148] Top shape: 1 512 32 32 (524288)
I0419 10:40:20.323060 14438 net.cpp:156] Memory required for data: 604286688
I0419 10:40:20.323076 14438 layer_factory.hpp:77] Creating layer relu5_1
I0419 10:40:20.323092 14438 net.cpp:91] Creating Layer relu5_1
I0419 10:40:20.323101 14438 net.cpp:425] relu5_1 <- conv5_1
I0419 10:40:20.323115 14438 net.cpp:386] relu5_1 -> conv5_1 (in-place)
I0419 10:40:20.323432 14438 net.cpp:141] Setting up relu5_1
I0419 10:40:20.323446 14438 net.cpp:148] Top shape: 1 512 32 32 (524288)
I0419 10:40:20.323463 14438 net.cpp:156] Memory required for data: 606383840
I0419 10:40:20.323469 14438 layer_factory.hpp:77] Creating layer conv5_2
I0419 10:40:20.323487 14438 net.cpp:91] Creating Layer conv5_2
I0419 10:40:20.323493 14438 net.cpp:425] conv5_2 <- conv5_1
I0419 10:40:20.323503 14438 net.cpp:399] conv5_2 -> conv5_2
I0419 10:40:20.355331 14438 net.cpp:141] Setting up conv5_2
I0419 10:40:20.355396 14438 net.cpp:148] Top shape: 1 512 32 32 (524288)
I0419 10:40:20.355403 14438 net.cpp:156] Memory required for data: 608480992
I0419 10:40:20.355417 14438 layer_factory.hpp:77] Creating layer relu5_2
I0419 10:40:20.355434 14438 net.cpp:91] Creating Layer relu5_2
I0419 10:40:20.355440 14438 net.cpp:425] relu5_2 <- conv5_2
I0419 10:40:20.355450 14438 net.cpp:386] relu5_2 -> conv5_2 (in-place)
I0419 10:40:20.356101 14438 net.cpp:141] Setting up relu5_2
I0419 10:40:20.356119 14438 net.cpp:148] Top shape: 1 512 32 32 (524288)
I0419 10:40:20.356137 14438 net.cpp:156] Memory required for data: 610578144
I0419 10:40:20.356140 14438 layer_factory.hpp:77] Creating layer conv5_3
I0419 10:40:20.356158 14438 net.cpp:91] Creating Layer conv5_3
I0419 10:40:20.356165 14438 net.cpp:425] conv5_3 <- conv5_2
I0419 10:40:20.356178 14438 net.cpp:399] conv5_3 -> conv5_3
I0419 10:40:20.399695 14438 net.cpp:141] Setting up conv5_3
I0419 10:40:20.399793 14438 net.cpp:148] Top shape: 1 512 32 32 (524288)
I0419 10:40:20.399801 14438 net.cpp:156] Memory required for data: 612675296
I0419 10:40:20.399823 14438 layer_factory.hpp:77] Creating layer relu5_3
I0419 10:40:20.399853 14438 net.cpp:91] Creating Layer relu5_3
I0419 10:40:20.399864 14438 net.cpp:425] relu5_3 <- conv5_3
I0419 10:40:20.399878 14438 net.cpp:386] relu5_3 -> conv5_3 (in-place)
I0419 10:40:20.401895 14438 net.cpp:141] Setting up relu5_3
I0419 10:40:20.401921 14438 net.cpp:148] Top shape: 1 512 32 32 (524288)
I0419 10:40:20.401937 14438 net.cpp:156] Memory required for data: 614772448
I0419 10:40:20.401948 14438 layer_factory.hpp:77] Creating layer pool5
I0419 10:40:20.401962 14438 net.cpp:91] Creating Layer pool5
I0419 10:40:20.401968 14438 net.cpp:425] pool5 <- conv5_3
I0419 10:40:20.401980 14438 net.cpp:399] pool5 -> pool5
I0419 10:40:20.402096 14438 net.cpp:141] Setting up pool5
I0419 10:40:20.402110 14438 net.cpp:148] Top shape: 1 512 32 32 (524288)
I0419 10:40:20.402117 14438 net.cpp:156] Memory required for data: 616869600
I0419 10:40:20.402122 14438 layer_factory.hpp:77] Creating layer fc6
I0419 10:40:20.402144 14438 net.cpp:91] Creating Layer fc6
I0419 10:40:20.402153 14438 net.cpp:425] fc6 <- pool5
I0419 10:40:20.402163 14438 net.cpp:399] fc6 -> fc6
I0419 10:40:20.459687 14438 net.cpp:141] Setting up fc6
I0419 10:40:20.459751 14438 net.cpp:148] Top shape: 1 1024 32 32 (1048576)
I0419 10:40:20.459756 14438 net.cpp:156] Memory required for data: 621063904
I0419 10:40:20.459769 14438 layer_factory.hpp:77] Creating layer relu6
I0419 10:40:20.459784 14438 net.cpp:91] Creating Layer relu6
I0419 10:40:20.459792 14438 net.cpp:425] relu6 <- fc6
I0419 10:40:20.459801 14438 net.cpp:386] relu6 -> fc6 (in-place)
I0419 10:40:20.460184 14438 net.cpp:141] Setting up relu6
I0419 10:40:20.460198 14438 net.cpp:148] Top shape: 1 1024 32 32 (1048576)
I0419 10:40:20.460213 14438 net.cpp:156] Memory required for data: 625258208
I0419 10:40:20.460217 14438 layer_factory.hpp:77] Creating layer fc7
I0419 10:40:20.460233 14438 net.cpp:91] Creating Layer fc7
I0419 10:40:20.460237 14438 net.cpp:425] fc7 <- fc6
I0419 10:40:20.460245 14438 net.cpp:399] fc7 -> fc7
I0419 10:40:20.474493 14438 net.cpp:141] Setting up fc7
I0419 10:40:20.474552 14438 net.cpp:148] Top shape: 1 1024 32 32 (1048576)
I0419 10:40:20.474556 14438 net.cpp:156] Memory required for data: 629452512
I0419 10:40:20.474570 14438 layer_factory.hpp:77] Creating layer relu7
I0419 10:40:20.474583 14438 net.cpp:91] Creating Layer relu7
I0419 10:40:20.474588 14438 net.cpp:425] relu7 <- fc7
I0419 10:40:20.474596 14438 net.cpp:386] relu7 -> fc7 (in-place)
I0419 10:40:20.474880 14438 net.cpp:141] Setting up relu7
I0419 10:40:20.474902 14438 net.cpp:148] Top shape: 1 1024 32 32 (1048576)
I0419 10:40:20.474905 14438 net.cpp:156] Memory required for data: 633646816
I0419 10:40:20.474920 14438 layer_factory.hpp:77] Creating layer fc7_relu7_0_split
I0419 10:40:20.474930 14438 net.cpp:91] Creating Layer fc7_relu7_0_split
I0419 10:40:20.474933 14438 net.cpp:425] fc7_relu7_0_split <- fc7
I0419 10:40:20.474943 14438 net.cpp:399] fc7_relu7_0_split -> fc7_relu7_0_split_0
I0419 10:40:20.474962 14438 net.cpp:399] fc7_relu7_0_split -> fc7_relu7_0_split_1
I0419 10:40:20.474973 14438 net.cpp:399] fc7_relu7_0_split -> fc7_relu7_0_split_2
I0419 10:40:20.474980 14438 net.cpp:399] fc7_relu7_0_split -> fc7_relu7_0_split_3
I0419 10:40:20.475105 14438 net.cpp:141] Setting up fc7_relu7_0_split
I0419 10:40:20.475116 14438 net.cpp:148] Top shape: 1 1024 32 32 (1048576)
I0419 10:40:20.475123 14438 net.cpp:148] Top shape: 1 1024 32 32 (1048576)
I0419 10:40:20.475128 14438 net.cpp:148] Top shape: 1 1024 32 32 (1048576)
I0419 10:40:20.475132 14438 net.cpp:148] Top shape: 1 1024 32 32 (1048576)
I0419 10:40:20.475136 14438 net.cpp:156] Memory required for data: 650424032
I0419 10:40:20.475141 14438 layer_factory.hpp:77] Creating layer conv6_1
I0419 10:40:20.475157 14438 net.cpp:91] Creating Layer conv6_1
I0419 10:40:20.475162 14438 net.cpp:425] conv6_1 <- fc7_relu7_0_split_0
I0419 10:40:20.475193 14438 net.cpp:399] conv6_1 -> conv6_1
I0419 10:40:20.487618 14438 net.cpp:141] Setting up conv6_1
I0419 10:40:20.487660 14438 net.cpp:148] Top shape: 1 256 32 32 (262144)
I0419 10:40:20.487664 14438 net.cpp:156] Memory required for data: 651472608
I0419 10:40:20.487675 14438 layer_factory.hpp:77] Creating layer conv6_1_relu
I0419 10:40:20.487689 14438 net.cpp:91] Creating Layer conv6_1_relu
I0419 10:40:20.487696 14438 net.cpp:425] conv6_1_relu <- conv6_1
I0419 10:40:20.487712 14438 net.cpp:386] conv6_1_relu -> conv6_1 (in-place)
I0419 10:40:20.487979 14438 net.cpp:141] Setting up conv6_1_relu
I0419 10:40:20.487992 14438 net.cpp:148] Top shape: 1 256 32 32 (262144)
I0419 10:40:20.488003 14438 net.cpp:156] Memory required for data: 652521184
I0419 10:40:20.488008 14438 layer_factory.hpp:77] Creating layer conv6_2
I0419 10:40:20.488034 14438 net.cpp:91] Creating Layer conv6_2
I0419 10:40:20.488040 14438 net.cpp:425] conv6_2 <- conv6_1
I0419 10:40:20.488049 14438 net.cpp:399] conv6_2 -> conv6_2
I0419 10:40:20.508903 14438 net.cpp:141] Setting up conv6_2
I0419 10:40:20.508958 14438 net.cpp:148] Top shape: 1 512 16 16 (131072)
I0419 10:40:20.508965 14438 net.cpp:156] Memory required for data: 653045472
I0419 10:40:20.509011 14438 layer_factory.hpp:77] Creating layer conv6_2_relu
I0419 10:40:20.509029 14438 net.cpp:91] Creating Layer conv6_2_relu
I0419 10:40:20.509050 14438 net.cpp:425] conv6_2_relu <- conv6_2
I0419 10:40:20.509066 14438 net.cpp:386] conv6_2_relu -> conv6_2 (in-place)
I0419 10:40:20.509896 14438 net.cpp:141] Setting up conv6_2_relu
I0419 10:40:20.509915 14438 net.cpp:148] Top shape: 1 512 16 16 (131072)
I0419 10:40:20.509930 14438 net.cpp:156] Memory required for data: 653569760
I0419 10:40:20.509938 14438 layer_factory.hpp:77] Creating layer conv6_2_conv6_2_relu_0_split
I0419 10:40:20.509949 14438 net.cpp:91] Creating Layer conv6_2_conv6_2_relu_0_split
I0419 10:40:20.509954 14438 net.cpp:425] conv6_2_conv6_2_relu_0_split <- conv6_2
I0419 10:40:20.509970 14438 net.cpp:399] conv6_2_conv6_2_relu_0_split -> conv6_2_conv6_2_relu_0_split_0
I0419 10:40:20.509986 14438 net.cpp:399] conv6_2_conv6_2_relu_0_split -> conv6_2_conv6_2_relu_0_split_1
I0419 10:40:20.509997 14438 net.cpp:399] conv6_2_conv6_2_relu_0_split -> conv6_2_conv6_2_relu_0_split_2
I0419 10:40:20.510007 14438 net.cpp:399] conv6_2_conv6_2_relu_0_split -> conv6_2_conv6_2_relu_0_split_3
I0419 10:40:20.510174 14438 net.cpp:141] Setting up conv6_2_conv6_2_relu_0_split
I0419 10:40:20.510186 14438 net.cpp:148] Top shape: 1 512 16 16 (131072)
I0419 10:40:20.510195 14438 net.cpp:148] Top shape: 1 512 16 16 (131072)
I0419 10:40:20.510200 14438 net.cpp:148] Top shape: 1 512 16 16 (131072)
I0419 10:40:20.510206 14438 net.cpp:148] Top shape: 1 512 16 16 (131072)
I0419 10:40:20.510213 14438 net.cpp:156] Memory required for data: 655666912
I0419 10:40:20.510218 14438 layer_factory.hpp:77] Creating layer conv7_1
I0419 10:40:20.510236 14438 net.cpp:91] Creating Layer conv7_1
I0419 10:40:20.510243 14438 net.cpp:425] conv7_1 <- conv6_2_conv6_2_relu_0_split_0
I0419 10:40:20.510258 14438 net.cpp:399] conv7_1 -> conv7_1
I0419 10:40:20.513273 14438 net.cpp:141] Setting up conv7_1
I0419 10:40:20.513296 14438 net.cpp:148] Top shape: 1 128 16 16 (32768)
I0419 10:40:20.513319 14438 net.cpp:156] Memory required for data: 655797984
I0419 10:40:20.513335 14438 layer_factory.hpp:77] Creating layer conv7_1_relu
I0419 10:40:20.513347 14438 net.cpp:91] Creating Layer conv7_1_relu
I0419 10:40:20.513358 14438 net.cpp:425] conv7_1_relu <- conv7_1
I0419 10:40:20.513372 14438 net.cpp:386] conv7_1_relu -> conv7_1 (in-place)
I0419 10:40:20.513800 14438 net.cpp:141] Setting up conv7_1_relu
I0419 10:40:20.513820 14438 net.cpp:148] Top shape: 1 128 16 16 (32768)
I0419 10:40:20.513828 14438 net.cpp:156] Memory required for data: 655929056
I0419 10:40:20.513837 14438 layer_factory.hpp:77] Creating layer conv7_2
I0419 10:40:20.513864 14438 net.cpp:91] Creating Layer conv7_2
I0419 10:40:20.513873 14438 net.cpp:425] conv7_2 <- conv7_1
I0419 10:40:20.513887 14438 net.cpp:399] conv7_2 -> conv7_2
I0419 10:40:20.520174 14438 net.cpp:141] Setting up conv7_2
I0419 10:40:20.520200 14438 net.cpp:148] Top shape: 1 256 8 8 (16384)
I0419 10:40:20.520206 14438 net.cpp:156] Memory required for data: 655994592
I0419 10:40:20.520216 14438 layer_factory.hpp:77] Creating layer conv7_2_relu
I0419 10:40:20.520231 14438 net.cpp:91] Creating Layer conv7_2_relu
I0419 10:40:20.520238 14438 net.cpp:425] conv7_2_relu <- conv7_2
I0419 10:40:20.520246 14438 net.cpp:386] conv7_2_relu -> conv7_2 (in-place)
I0419 10:40:20.520546 14438 net.cpp:141] Setting up conv7_2_relu
I0419 10:40:20.520562 14438 net.cpp:148] Top shape: 1 256 8 8 (16384)
I0419 10:40:20.520576 14438 net.cpp:156] Memory required for data: 656060128
I0419 10:40:20.520581 14438 layer_factory.hpp:77] Creating layer conv7_2_conv7_2_relu_0_split
I0419 10:40:20.520591 14438 net.cpp:91] Creating Layer conv7_2_conv7_2_relu_0_split
I0419 10:40:20.520596 14438 net.cpp:425] conv7_2_conv7_2_relu_0_split <- conv7_2
I0419 10:40:20.520607 14438 net.cpp:399] conv7_2_conv7_2_relu_0_split -> conv7_2_conv7_2_relu_0_split_0
I0419 10:40:20.520620 14438 net.cpp:399] conv7_2_conv7_2_relu_0_split -> conv7_2_conv7_2_relu_0_split_1
I0419 10:40:20.520630 14438 net.cpp:399] conv7_2_conv7_2_relu_0_split -> conv7_2_conv7_2_relu_0_split_2
I0419 10:40:20.520642 14438 net.cpp:399] conv7_2_conv7_2_relu_0_split -> conv7_2_conv7_2_relu_0_split_3
I0419 10:40:20.520792 14438 net.cpp:141] Setting up conv7_2_conv7_2_relu_0_split
I0419 10:40:20.520802 14438 net.cpp:148] Top shape: 1 256 8 8 (16384)
I0419 10:40:20.520809 14438 net.cpp:148] Top shape: 1 256 8 8 (16384)
I0419 10:40:20.520815 14438 net.cpp:148] Top shape: 1 256 8 8 (16384)
I0419 10:40:20.520823 14438 net.cpp:148] Top shape: 1 256 8 8 (16384)
I0419 10:40:20.520826 14438 net.cpp:156] Memory required for data: 656322272
I0419 10:40:20.520831 14438 layer_factory.hpp:77] Creating layer conv8_1
I0419 10:40:20.520848 14438 net.cpp:91] Creating Layer conv8_1
I0419 10:40:20.520856 14438 net.cpp:425] conv8_1 <- conv7_2_conv7_2_relu_0_split_0
I0419 10:40:20.520867 14438 net.cpp:399] conv8_1 -> conv8_1
I0419 10:40:20.526386 14438 net.cpp:141] Setting up conv8_1
I0419 10:40:20.526415 14438 net.cpp:148] Top shape: 1 128 8 8 (8192)
I0419 10:40:20.526422 14438 net.cpp:156] Memory required for data: 656355040
I0419 10:40:20.526433 14438 layer_factory.hpp:77] Creating layer conv8_1_relu
I0419 10:40:20.526446 14438 net.cpp:91] Creating Layer conv8_1_relu
I0419 10:40:20.526454 14438 net.cpp:425] conv8_1_relu <- conv8_1
I0419 10:40:20.526464 14438 net.cpp:386] conv8_1_relu -> conv8_1 (in-place)
I0419 10:40:20.526747 14438 net.cpp:141] Setting up conv8_1_relu
I0419 10:40:20.526760 14438 net.cpp:148] Top shape: 1 128 8 8 (8192)
I0419 10:40:20.526764 14438 net.cpp:156] Memory required for data: 656387808
I0419 10:40:20.526770 14438 layer_factory.hpp:77] Creating layer conv8_2
I0419 10:40:20.526785 14438 net.cpp:91] Creating Layer conv8_2
I0419 10:40:20.526793 14438 net.cpp:425] conv8_2 <- conv8_1
I0419 10:40:20.526805 14438 net.cpp:399] conv8_2 -> conv8_2
I0419 10:40:20.537024 14438 net.cpp:141] Setting up conv8_2
I0419 10:40:20.537081 14438 net.cpp:148] Top shape: 1 256 4 4 (4096)
I0419 10:40:20.537086 14438 net.cpp:156] Memory required for data: 656404192
I0419 10:40:20.537106 14438 layer_factory.hpp:77] Creating layer conv8_2_relu
I0419 10:40:20.537127 14438 net.cpp:91] Creating Layer conv8_2_relu
I0419 10:40:20.537137 14438 net.cpp:425] conv8_2_relu <- conv8_2
I0419 10:40:20.537147 14438 net.cpp:386] conv8_2_relu -> conv8_2 (in-place)
I0419 10:40:20.537497 14438 net.cpp:141] Setting up conv8_2_relu
I0419 10:40:20.537513 14438 net.cpp:148] Top shape: 1 256 4 4 (4096)
I0419 10:40:20.537516 14438 net.cpp:156] Memory required for data: 656420576
I0419 10:40:20.537523 14438 layer_factory.hpp:77] Creating layer conv8_2_conv8_2_relu_0_split
I0419 10:40:20.537533 14438 net.cpp:91] Creating Layer conv8_2_conv8_2_relu_0_split
I0419 10:40:20.537540 14438 net.cpp:425] conv8_2_conv8_2_relu_0_split <- conv8_2
I0419 10:40:20.537550 14438 net.cpp:399] conv8_2_conv8_2_relu_0_split -> conv8_2_conv8_2_relu_0_split_0
I0419 10:40:20.537588 14438 net.cpp:399] conv8_2_conv8_2_relu_0_split -> conv8_2_conv8_2_relu_0_split_1
I0419 10:40:20.537598 14438 net.cpp:399] conv8_2_conv8_2_relu_0_split -> conv8_2_conv8_2_relu_0_split_2
I0419 10:40:20.537611 14438 net.cpp:399] conv8_2_conv8_2_relu_0_split -> conv8_2_conv8_2_relu_0_split_3
I0419 10:40:20.537770 14438 net.cpp:141] Setting up conv8_2_conv8_2_relu_0_split
I0419 10:40:20.537789 14438 net.cpp:148] Top shape: 1 256 4 4 (4096)
I0419 10:40:20.537811 14438 net.cpp:148] Top shape: 1 256 4 4 (4096)
I0419 10:40:20.537817 14438 net.cpp:148] Top shape: 1 256 4 4 (4096)
I0419 10:40:20.537823 14438 net.cpp:148] Top shape: 1 256 4 4 (4096)
I0419 10:40:20.537827 14438 net.cpp:156] Memory required for data: 656486112
I0419 10:40:20.537830 14438 layer_factory.hpp:77] Creating layer conv9_1
I0419 10:40:20.537855 14438 net.cpp:91] Creating Layer conv9_1
I0419 10:40:20.537868 14438 net.cpp:425] conv9_1 <- conv8_2_conv8_2_relu_0_split_0
I0419 10:40:20.537878 14438 net.cpp:399] conv9_1 -> conv9_1
I0419 10:40:20.540091 14438 net.cpp:141] Setting up conv9_1
I0419 10:40:20.540112 14438 net.cpp:148] Top shape: 1 128 4 4 (2048)
I0419 10:40:20.540117 14438 net.cpp:156] Memory required for data: 656494304
I0419 10:40:20.540125 14438 layer_factory.hpp:77] Creating layer conv9_1_relu
I0419 10:40:20.540135 14438 net.cpp:91] Creating Layer conv9_1_relu
I0419 10:40:20.540143 14438 net.cpp:425] conv9_1_relu <- conv9_1
I0419 10:40:20.540153 14438 net.cpp:386] conv9_1_relu -> conv9_1 (in-place)
I0419 10:40:20.543316 14438 net.cpp:141] Setting up conv9_1_relu
I0419 10:40:20.543339 14438 net.cpp:148] Top shape: 1 128 4 4 (2048)
I0419 10:40:20.543356 14438 net.cpp:156] Memory required for data: 656502496
I0419 10:40:20.543364 14438 layer_factory.hpp:77] Creating layer conv9_2
I0419 10:40:20.543381 14438 net.cpp:91] Creating Layer conv9_2
I0419 10:40:20.543387 14438 net.cpp:425] conv9_2 <- conv9_1
I0419 10:40:20.543399 14438 net.cpp:399] conv9_2 -> conv9_2
I0419 10:40:20.556939 14438 net.cpp:141] Setting up conv9_2
I0419 10:40:20.556991 14438 net.cpp:148] Top shape: 1 256 2 2 (1024)
I0419 10:40:20.556996 14438 net.cpp:156] Memory required for data: 656506592
I0419 10:40:20.557011 14438 layer_factory.hpp:77] Creating layer conv9_2_relu
I0419 10:40:20.557024 14438 net.cpp:91] Creating Layer conv9_2_relu
I0419 10:40:20.557046 14438 net.cpp:425] conv9_2_relu <- conv9_2
I0419 10:40:20.557061 14438 net.cpp:386] conv9_2_relu -> conv9_2 (in-place)
I0419 10:40:20.557359 14438 net.cpp:141] Setting up conv9_2_relu
I0419 10:40:20.557373 14438 net.cpp:148] Top shape: 1 256 2 2 (1024)
I0419 10:40:20.557376 14438 net.cpp:156] Memory required for data: 656510688
I0419 10:40:20.557392 14438 layer_factory.hpp:77] Creating layer conv9_2_conv9_2_relu_0_split
I0419 10:40:20.557404 14438 net.cpp:91] Creating Layer conv9_2_conv9_2_relu_0_split
I0419 10:40:20.557407 14438 net.cpp:425] conv9_2_conv9_2_relu_0_split <- conv9_2
I0419 10:40:20.557415 14438 net.cpp:399] conv9_2_conv9_2_relu_0_split -> conv9_2_conv9_2_relu_0_split_0
I0419 10:40:20.557435 14438 net.cpp:399] conv9_2_conv9_2_relu_0_split -> conv9_2_conv9_2_relu_0_split_1
I0419 10:40:20.557479 14438 net.cpp:399] conv9_2_conv9_2_relu_0_split -> conv9_2_conv9_2_relu_0_split_2
I0419 10:40:20.557490 14438 net.cpp:399] conv9_2_conv9_2_relu_0_split -> conv9_2_conv9_2_relu_0_split_3
I0419 10:40:20.557626 14438 net.cpp:141] Setting up conv9_2_conv9_2_relu_0_split
I0419 10:40:20.557636 14438 net.cpp:148] Top shape: 1 256 2 2 (1024)
I0419 10:40:20.557642 14438 net.cpp:148] Top shape: 1 256 2 2 (1024)
I0419 10:40:20.557647 14438 net.cpp:148] Top shape: 1 256 2 2 (1024)
I0419 10:40:20.557652 14438 net.cpp:148] Top shape: 1 256 2 2 (1024)
I0419 10:40:20.557657 14438 net.cpp:156] Memory required for data: 656527072
I0419 10:40:20.557665 14438 layer_factory.hpp:77] Creating layer pool6
I0419 10:40:20.557679 14438 net.cpp:91] Creating Layer pool6
I0419 10:40:20.557684 14438 net.cpp:425] pool6 <- conv9_2_conv9_2_relu_0_split_0
I0419 10:40:20.557693 14438 net.cpp:399] pool6 -> pool6
I0419 10:40:20.558035 14438 net.cpp:141] Setting up pool6
I0419 10:40:20.558046 14438 net.cpp:148] Top shape: 1 256 1 1 (256)
I0419 10:40:20.558051 14438 net.cpp:156] Memory required for data: 656528096
I0419 10:40:20.558055 14438 layer_factory.hpp:77] Creating layer pool6_pool6_0_split
I0419 10:40:20.558068 14438 net.cpp:91] Creating Layer pool6_pool6_0_split
I0419 10:40:20.558073 14438 net.cpp:425] pool6_pool6_0_split <- pool6
I0419 10:40:20.558082 14438 net.cpp:399] pool6_pool6_0_split -> pool6_pool6_0_split_0
I0419 10:40:20.558092 14438 net.cpp:399] pool6_pool6_0_split -> pool6_pool6_0_split_1
I0419 10:40:20.558101 14438 net.cpp:399] pool6_pool6_0_split -> pool6_pool6_0_split_2
I0419 10:40:20.558204 14438 net.cpp:141] Setting up pool6_pool6_0_split
I0419 10:40:20.558212 14438 net.cpp:148] Top shape: 1 256 1 1 (256)
I0419 10:40:20.558218 14438 net.cpp:148] Top shape: 1 256 1 1 (256)
I0419 10:40:20.558224 14438 net.cpp:148] Top shape: 1 256 1 1 (256)
I0419 10:40:20.558228 14438 net.cpp:156] Memory required for data: 656531168
I0419 10:40:20.558233 14438 layer_factory.hpp:77] Creating layer conv4_3_norm
I0419 10:40:20.558244 14438 net.cpp:91] Creating Layer conv4_3_norm
I0419 10:40:20.558251 14438 net.cpp:425] conv4_3_norm <- conv4_3_relu4_3_0_split_1
I0419 10:40:20.558262 14438 net.cpp:399] conv4_3_norm -> conv4_3_norm
I0419 10:40:20.558609 14438 net.cpp:141] Setting up conv4_3_norm
I0419 10:40:20.558622 14438 net.cpp:148] Top shape: 1 512 63 63 (2032128)
I0419 10:40:20.558629 14438 net.cpp:156] Memory required for data: 664659680
I0419 10:40:20.558636 14438 layer_factory.hpp:77] Creating layer conv4_3_norm_conv4_3_norm_0_split
I0419 10:40:20.558645 14438 net.cpp:91] Creating Layer conv4_3_norm_conv4_3_norm_0_split
I0419 10:40:20.558650 14438 net.cpp:425] conv4_3_norm_conv4_3_norm_0_split <- conv4_3_norm
I0419 10:40:20.558658 14438 net.cpp:399] conv4_3_norm_conv4_3_norm_0_split -> conv4_3_norm_conv4_3_norm_0_split_0
I0419 10:40:20.558668 14438 net.cpp:399] conv4_3_norm_conv4_3_norm_0_split -> conv4_3_norm_conv4_3_norm_0_split_1
I0419 10:40:20.558676 14438 net.cpp:399] conv4_3_norm_conv4_3_norm_0_split -> conv4_3_norm_conv4_3_norm_0_split_2
I0419 10:40:20.558773 14438 net.cpp:141] Setting up conv4_3_norm_conv4_3_norm_0_split
I0419 10:40:20.558781 14438 net.cpp:148] Top shape: 1 512 63 63 (2032128)
I0419 10:40:20.558787 14438 net.cpp:148] Top shape: 1 512 63 63 (2032128)
I0419 10:40:20.558794 14438 net.cpp:148] Top shape: 1 512 63 63 (2032128)
I0419 10:40:20.558797 14438 net.cpp:156] Memory required for data: 689045216
I0419 10:40:20.558802 14438 layer_factory.hpp:77] Creating layer conv4_3_norm_mbox_loc
I0419 10:40:20.558822 14438 net.cpp:91] Creating Layer conv4_3_norm_mbox_loc
I0419 10:40:20.558827 14438 net.cpp:425] conv4_3_norm_mbox_loc <- conv4_3_norm_conv4_3_norm_0_split_0
I0419 10:40:20.558837 14438 net.cpp:399] conv4_3_norm_mbox_loc -> conv4_3_norm_mbox_loc
I0419 10:40:20.562526 14438 net.cpp:141] Setting up conv4_3_norm_mbox_loc
I0419 10:40:20.562549 14438 net.cpp:148] Top shape: 1 12 63 63 (47628)
I0419 10:40:20.562554 14438 net.cpp:156] Memory required for data: 689235728
I0419 10:40:20.562564 14438 layer_factory.hpp:77] Creating layer conv4_3_norm_mbox_loc_perm
I0419 10:40:20.562611 14438 net.cpp:91] Creating Layer conv4_3_norm_mbox_loc_perm
I0419 10:40:20.562618 14438 net.cpp:425] conv4_3_norm_mbox_loc_perm <- conv4_3_norm_mbox_loc
I0419 10:40:20.562626 14438 net.cpp:399] conv4_3_norm_mbox_loc_perm -> conv4_3_norm_mbox_loc_perm
I0419 10:40:20.562863 14438 net.cpp:141] Setting up conv4_3_norm_mbox_loc_perm
I0419 10:40:20.562875 14438 net.cpp:148] Top shape: 1 63 63 12 (47628)
I0419 10:40:20.562880 14438 net.cpp:156] Memory required for data: 689426240
I0419 10:40:20.562885 14438 layer_factory.hpp:77] Creating layer conv4_3_norm_mbox_loc_flat
I0419 10:40:20.562897 14438 net.cpp:91] Creating Layer conv4_3_norm_mbox_loc_flat
I0419 10:40:20.562903 14438 net.cpp:425] conv4_3_norm_mbox_loc_flat <- conv4_3_norm_mbox_loc_perm
I0419 10:40:20.562912 14438 net.cpp:399] conv4_3_norm_mbox_loc_flat -> conv4_3_norm_mbox_loc_flat
I0419 10:40:20.562978 14438 net.cpp:141] Setting up conv4_3_norm_mbox_loc_flat
I0419 10:40:20.562986 14438 net.cpp:148] Top shape: 1 47628 (47628)
I0419 10:40:20.562992 14438 net.cpp:156] Memory required for data: 689616752
I0419 10:40:20.562996 14438 layer_factory.hpp:77] Creating layer conv4_3_norm_mbox_conf
I0419 10:40:20.563014 14438 net.cpp:91] Creating Layer conv4_3_norm_mbox_conf
I0419 10:40:20.563020 14438 net.cpp:425] conv4_3_norm_mbox_conf <- conv4_3_norm_conv4_3_norm_0_split_1
I0419 10:40:20.563030 14438 net.cpp:399] conv4_3_norm_mbox_conf -> conv4_3_norm_mbox_conf
I0419 10:40:20.583665 14438 net.cpp:141] Setting up conv4_3_norm_mbox_conf
I0419 10:40:20.583703 14438 net.cpp:148] Top shape: 1 369 63 63 (1464561)
I0419 10:40:20.583706 14438 net.cpp:156] Memory required for data: 695474996
I0419 10:40:20.583719 14438 layer_factory.hpp:77] Creating layer conv4_3_norm_mbox_conf_perm
I0419 10:40:20.583740 14438 net.cpp:91] Creating Layer conv4_3_norm_mbox_conf_perm
I0419 10:40:20.583747 14438 net.cpp:425] conv4_3_norm_mbox_conf_perm <- conv4_3_norm_mbox_conf
I0419 10:40:20.583760 14438 net.cpp:399] conv4_3_norm_mbox_conf_perm -> conv4_3_norm_mbox_conf_perm
I0419 10:40:20.583957 14438 net.cpp:141] Setting up conv4_3_norm_mbox_conf_perm
I0419 10:40:20.583966 14438 net.cpp:148] Top shape: 1 63 63 369 (1464561)
I0419 10:40:20.583974 14438 net.cpp:156] Memory required for data: 701333240
I0419 10:40:20.583978 14438 layer_factory.hpp:77] Creating layer conv4_3_norm_mbox_conf_flat
I0419 10:40:20.583992 14438 net.cpp:91] Creating Layer conv4_3_norm_mbox_conf_flat
I0419 10:40:20.583997 14438 net.cpp:425] conv4_3_norm_mbox_conf_flat <- conv4_3_norm_mbox_conf_perm
I0419 10:40:20.584003 14438 net.cpp:399] conv4_3_norm_mbox_conf_flat -> conv4_3_norm_mbox_conf_flat
I0419 10:40:20.584048 14438 net.cpp:141] Setting up conv4_3_norm_mbox_conf_flat
I0419 10:40:20.584055 14438 net.cpp:148] Top shape: 1 1464561 (1464561)
I0419 10:40:20.584059 14438 net.cpp:156] Memory required for data: 707191484
I0419 10:40:20.584064 14438 layer_factory.hpp:77] Creating layer conv4_3_norm_mbox_priorbox
I0419 10:40:20.584075 14438 net.cpp:91] Creating Layer conv4_3_norm_mbox_priorbox
I0419 10:40:20.584081 14438 net.cpp:425] conv4_3_norm_mbox_priorbox <- conv4_3_norm_conv4_3_norm_0_split_2
I0419 10:40:20.584089 14438 net.cpp:425] conv4_3_norm_mbox_priorbox <- data_data_0_split_1
I0419 10:40:20.584097 14438 net.cpp:399] conv4_3_norm_mbox_priorbox -> conv4_3_norm_mbox_priorbox
I0419 10:40:20.584144 14438 net.cpp:141] Setting up conv4_3_norm_mbox_priorbox
I0419 10:40:20.584152 14438 net.cpp:148] Top shape: 1 2 47628 (95256)
I0419 10:40:20.584156 14438 net.cpp:156] Memory required for data: 707572508
I0419 10:40:20.584159 14438 layer_factory.hpp:77] Creating layer fc7_mbox_loc
I0419 10:40:20.584175 14438 net.cpp:91] Creating Layer fc7_mbox_loc
I0419 10:40:20.584182 14438 net.cpp:425] fc7_mbox_loc <- fc7_relu7_0_split_1
I0419 10:40:20.584192 14438 net.cpp:399] fc7_mbox_loc -> fc7_mbox_loc
I0419 10:40:20.605340 14438 net.cpp:141] Setting up fc7_mbox_loc
I0419 10:40:20.605379 14438 net.cpp:148] Top shape: 1 24 32 32 (24576)
I0419 10:40:20.605383 14438 net.cpp:156] Memory required for data: 707670812
I0419 10:40:20.605397 14438 layer_factory.hpp:77] Creating layer fc7_mbox_loc_perm
I0419 10:40:20.605428 14438 net.cpp:91] Creating Layer fc7_mbox_loc_perm
I0419 10:40:20.605435 14438 net.cpp:425] fc7_mbox_loc_perm <- fc7_mbox_loc
I0419 10:40:20.605471 14438 net.cpp:399] fc7_mbox_loc_perm -> fc7_mbox_loc_perm
I0419 10:40:20.605948 14438 net.cpp:141] Setting up fc7_mbox_loc_perm
I0419 10:40:20.605960 14438 net.cpp:148] Top shape: 1 32 32 24 (24576)
I0419 10:40:20.605970 14438 net.cpp:156] Memory required for data: 707769116
I0419 10:40:20.605975 14438 layer_factory.hpp:77] Creating layer fc7_mbox_loc_flat
I0419 10:40:20.605984 14438 net.cpp:91] Creating Layer fc7_mbox_loc_flat
I0419 10:40:20.605990 14438 net.cpp:425] fc7_mbox_loc_flat <- fc7_mbox_loc_perm
I0419 10:40:20.605996 14438 net.cpp:399] fc7_mbox_loc_flat -> fc7_mbox_loc_flat
I0419 10:40:20.606065 14438 net.cpp:141] Setting up fc7_mbox_loc_flat
I0419 10:40:20.606073 14438 net.cpp:148] Top shape: 1 24576 (24576)
I0419 10:40:20.606076 14438 net.cpp:156] Memory required for data: 707867420
I0419 10:40:20.606079 14438 layer_factory.hpp:77] Creating layer fc7_mbox_conf
I0419 10:40:20.606096 14438 net.cpp:91] Creating Layer fc7_mbox_conf
I0419 10:40:20.606101 14438 net.cpp:425] fc7_mbox_conf <- fc7_relu7_0_split_2
I0419 10:40:20.606110 14438 net.cpp:399] fc7_mbox_conf -> fc7_mbox_conf
I0419 10:40:20.686941 14438 net.cpp:141] Setting up fc7_mbox_conf
I0419 10:40:20.686991 14438 net.cpp:148] Top shape: 1 738 32 32 (755712)
I0419 10:40:20.687000 14438 net.cpp:156] Memory required for data: 710890268
I0419 10:40:20.687021 14438 layer_factory.hpp:77] Creating layer fc7_mbox_conf_perm
I0419 10:40:20.687044 14438 net.cpp:91] Creating Layer fc7_mbox_conf_perm
I0419 10:40:20.687057 14438 net.cpp:425] fc7_mbox_conf_perm <- fc7_mbox_conf
I0419 10:40:20.687072 14438 net.cpp:399] fc7_mbox_conf_perm -> fc7_mbox_conf_perm
I0419 10:40:20.687278 14438 net.cpp:141] Setting up fc7_mbox_conf_perm
I0419 10:40:20.687291 14438 net.cpp:148] Top shape: 1 32 32 738 (755712)
I0419 10:40:20.687299 14438 net.cpp:156] Memory required for data: 713913116
I0419 10:40:20.687307 14438 layer_factory.hpp:77] Creating layer fc7_mbox_conf_flat
I0419 10:40:20.687326 14438 net.cpp:91] Creating Layer fc7_mbox_conf_flat
I0419 10:40:20.687335 14438 net.cpp:425] fc7_mbox_conf_flat <- fc7_mbox_conf_perm
I0419 10:40:20.687350 14438 net.cpp:399] fc7_mbox_conf_flat -> fc7_mbox_conf_flat
I0419 10:40:20.687403 14438 net.cpp:141] Setting up fc7_mbox_conf_flat
I0419 10:40:20.687415 14438 net.cpp:148] Top shape: 1 755712 (755712)
I0419 10:40:20.687422 14438 net.cpp:156] Memory required for data: 716935964
I0419 10:40:20.687430 14438 layer_factory.hpp:77] Creating layer fc7_mbox_priorbox
I0419 10:40:20.687448 14438 net.cpp:91] Creating Layer fc7_mbox_priorbox
I0419 10:40:20.687455 14438 net.cpp:425] fc7_mbox_priorbox <- fc7_relu7_0_split_3
I0419 10:40:20.687466 14438 net.cpp:425] fc7_mbox_priorbox <- data_data_0_split_2
I0419 10:40:20.687479 14438 net.cpp:399] fc7_mbox_priorbox -> fc7_mbox_priorbox
I0419 10:40:20.687542 14438 net.cpp:141] Setting up fc7_mbox_priorbox
I0419 10:40:20.687553 14438 net.cpp:148] Top shape: 1 2 24576 (49152)
I0419 10:40:20.687561 14438 net.cpp:156] Memory required for data: 717132572
I0419 10:40:20.687569 14438 layer_factory.hpp:77] Creating layer conv6_2_mbox_loc
I0419 10:40:20.687600 14438 net.cpp:91] Creating Layer conv6_2_mbox_loc
I0419 10:40:20.687609 14438 net.cpp:425] conv6_2_mbox_loc <- conv6_2_conv6_2_relu_0_split_1
I0419 10:40:20.687624 14438 net.cpp:399] conv6_2_mbox_loc -> conv6_2_mbox_loc
I0419 10:40:20.701575 14438 net.cpp:141] Setting up conv6_2_mbox_loc
I0419 10:40:20.701686 14438 net.cpp:148] Top shape: 1 24 16 16 (6144)
I0419 10:40:20.701694 14438 net.cpp:156] Memory required for data: 717157148
I0419 10:40:20.701714 14438 layer_factory.hpp:77] Creating layer conv6_2_mbox_loc_perm
I0419 10:40:20.701741 14438 net.cpp:91] Creating Layer conv6_2_mbox_loc_perm
I0419 10:40:20.701752 14438 net.cpp:425] conv6_2_mbox_loc_perm <- conv6_2_mbox_loc
I0419 10:40:20.701769 14438 net.cpp:399] conv6_2_mbox_loc_perm -> conv6_2_mbox_loc_perm
I0419 10:40:20.702150 14438 net.cpp:141] Setting up conv6_2_mbox_loc_perm
I0419 10:40:20.702165 14438 net.cpp:148] Top shape: 1 16 16 24 (6144)
I0419 10:40:20.702172 14438 net.cpp:156] Memory required for data: 717181724
I0419 10:40:20.702180 14438 layer_factory.hpp:77] Creating layer conv6_2_mbox_loc_flat
I0419 10:40:20.702195 14438 net.cpp:91] Creating Layer conv6_2_mbox_loc_flat
I0419 10:40:20.702203 14438 net.cpp:425] conv6_2_mbox_loc_flat <- conv6_2_mbox_loc_perm
I0419 10:40:20.702220 14438 net.cpp:399] conv6_2_mbox_loc_flat -> conv6_2_mbox_loc_flat
I0419 10:40:20.702278 14438 net.cpp:141] Setting up conv6_2_mbox_loc_flat
I0419 10:40:20.702288 14438 net.cpp:148] Top shape: 1 6144 (6144)
I0419 10:40:20.702296 14438 net.cpp:156] Memory required for data: 717206300
I0419 10:40:20.702308 14438 layer_factory.hpp:77] Creating layer conv6_2_mbox_conf
I0419 10:40:20.702369 14438 net.cpp:91] Creating Layer conv6_2_mbox_conf
I0419 10:40:20.702378 14438 net.cpp:425] conv6_2_mbox_conf <- conv6_2_conv6_2_relu_0_split_2
I0419 10:40:20.702395 14438 net.cpp:399] conv6_2_mbox_conf -> conv6_2_mbox_conf
I0419 10:40:20.746170 14438 net.cpp:141] Setting up conv6_2_mbox_conf
I0419 10:40:20.746210 14438 net.cpp:148] Top shape: 1 738 16 16 (188928)
I0419 10:40:20.746215 14438 net.cpp:156] Memory required for data: 717962012
I0419 10:40:20.746232 14438 layer_factory.hpp:77] Creating layer conv6_2_mbox_conf_perm
I0419 10:40:20.746254 14438 net.cpp:91] Creating Layer conv6_2_mbox_conf_perm
I0419 10:40:20.746266 14438 net.cpp:425] conv6_2_mbox_conf_perm <- conv6_2_mbox_conf
I0419 10:40:20.746287 14438 net.cpp:399] conv6_2_mbox_conf_perm -> conv6_2_mbox_conf_perm
I0419 10:40:20.746480 14438 net.cpp:141] Setting up conv6_2_mbox_conf_perm
I0419 10:40:20.746493 14438 net.cpp:148] Top shape: 1 16 16 738 (188928)
I0419 10:40:20.746506 14438 net.cpp:156] Memory required for data: 718717724
I0419 10:40:20.746520 14438 layer_factory.hpp:77] Creating layer conv6_2_mbox_conf_flat
I0419 10:40:20.746537 14438 net.cpp:91] Creating Layer conv6_2_mbox_conf_flat
I0419 10:40:20.746544 14438 net.cpp:425] conv6_2_mbox_conf_flat <- conv6_2_mbox_conf_perm
I0419 10:40:20.746556 14438 net.cpp:399] conv6_2_mbox_conf_flat -> conv6_2_mbox_conf_flat
I0419 10:40:20.746610 14438 net.cpp:141] Setting up conv6_2_mbox_conf_flat
I0419 10:40:20.746621 14438 net.cpp:148] Top shape: 1 188928 (188928)
I0419 10:40:20.746628 14438 net.cpp:156] Memory required for data: 719473436
I0419 10:40:20.746637 14438 layer_factory.hpp:77] Creating layer conv6_2_mbox_priorbox
I0419 10:40:20.746655 14438 net.cpp:91] Creating Layer conv6_2_mbox_priorbox
I0419 10:40:20.746664 14438 net.cpp:425] conv6_2_mbox_priorbox <- conv6_2_conv6_2_relu_0_split_3
I0419 10:40:20.746673 14438 net.cpp:425] conv6_2_mbox_priorbox <- data_data_0_split_3
I0419 10:40:20.746687 14438 net.cpp:399] conv6_2_mbox_priorbox -> conv6_2_mbox_priorbox
I0419 10:40:20.746747 14438 net.cpp:141] Setting up conv6_2_mbox_priorbox
I0419 10:40:20.746758 14438 net.cpp:148] Top shape: 1 2 6144 (12288)
I0419 10:40:20.746765 14438 net.cpp:156] Memory required for data: 719522588
I0419 10:40:20.746773 14438 layer_factory.hpp:77] Creating layer conv7_2_mbox_loc
I0419 10:40:20.746796 14438 net.cpp:91] Creating Layer conv7_2_mbox_loc
I0419 10:40:20.746804 14438 net.cpp:425] conv7_2_mbox_loc <- conv7_2_conv7_2_relu_0_split_1
I0419 10:40:20.746820 14438 net.cpp:399] conv7_2_mbox_loc -> conv7_2_mbox_loc
I0419 10:40:20.749049 14438 net.cpp:141] Setting up conv7_2_mbox_loc
I0419 10:40:20.749066 14438 net.cpp:148] Top shape: 1 24 8 8 (1536)
I0419 10:40:20.749073 14438 net.cpp:156] Memory required for data: 719528732
I0419 10:40:20.749085 14438 layer_factory.hpp:77] Creating layer conv7_2_mbox_loc_perm
I0419 10:40:20.749101 14438 net.cpp:91] Creating Layer conv7_2_mbox_loc_perm
I0419 10:40:20.749109 14438 net.cpp:425] conv7_2_mbox_loc_perm <- conv7_2_mbox_loc
I0419 10:40:20.749123 14438 net.cpp:399] conv7_2_mbox_loc_perm -> conv7_2_mbox_loc_perm
I0419 10:40:20.749320 14438 net.cpp:141] Setting up conv7_2_mbox_loc_perm
I0419 10:40:20.749331 14438 net.cpp:148] Top shape: 1 8 8 24 (1536)
I0419 10:40:20.749336 14438 net.cpp:156] Memory required for data: 719534876
I0419 10:40:20.749344 14438 layer_factory.hpp:77] Creating layer conv7_2_mbox_loc_flat
I0419 10:40:20.749362 14438 net.cpp:91] Creating Layer conv7_2_mbox_loc_flat
I0419 10:40:20.749370 14438 net.cpp:425] conv7_2_mbox_loc_flat <- conv7_2_mbox_loc_perm
I0419 10:40:20.749382 14438 net.cpp:399] conv7_2_mbox_loc_flat -> conv7_2_mbox_loc_flat
I0419 10:40:20.749435 14438 net.cpp:141] Setting up conv7_2_mbox_loc_flat
I0419 10:40:20.749471 14438 net.cpp:148] Top shape: 1 1536 (1536)
I0419 10:40:20.749477 14438 net.cpp:156] Memory required for data: 719541020
I0419 10:40:20.749485 14438 layer_factory.hpp:77] Creating layer conv7_2_mbox_conf
I0419 10:40:20.749508 14438 net.cpp:91] Creating Layer conv7_2_mbox_conf
I0419 10:40:20.749531 14438 net.cpp:425] conv7_2_mbox_conf <- conv7_2_conv7_2_relu_0_split_2
I0419 10:40:20.749552 14438 net.cpp:399] conv7_2_mbox_conf -> conv7_2_mbox_conf
I0419 10:40:20.768227 14438 net.cpp:141] Setting up conv7_2_mbox_conf
I0419 10:40:20.768266 14438 net.cpp:148] Top shape: 1 738 8 8 (47232)
I0419 10:40:20.768272 14438 net.cpp:156] Memory required for data: 719729948
I0419 10:40:20.768288 14438 layer_factory.hpp:77] Creating layer conv7_2_mbox_conf_perm
I0419 10:40:20.768311 14438 net.cpp:91] Creating Layer conv7_2_mbox_conf_perm
I0419 10:40:20.768321 14438 net.cpp:425] conv7_2_mbox_conf_perm <- conv7_2_mbox_conf
I0419 10:40:20.768335 14438 net.cpp:399] conv7_2_mbox_conf_perm -> conv7_2_mbox_conf_perm
I0419 10:40:20.768538 14438 net.cpp:141] Setting up conv7_2_mbox_conf_perm
I0419 10:40:20.768550 14438 net.cpp:148] Top shape: 1 8 8 738 (47232)
I0419 10:40:20.768558 14438 net.cpp:156] Memory required for data: 719918876
I0419 10:40:20.768565 14438 layer_factory.hpp:77] Creating layer conv7_2_mbox_conf_flat
I0419 10:40:20.768584 14438 net.cpp:91] Creating Layer conv7_2_mbox_conf_flat
I0419 10:40:20.768591 14438 net.cpp:425] conv7_2_mbox_conf_flat <- conv7_2_mbox_conf_perm
I0419 10:40:20.768604 14438 net.cpp:399] conv7_2_mbox_conf_flat -> conv7_2_mbox_conf_flat
I0419 10:40:20.768657 14438 net.cpp:141] Setting up conv7_2_mbox_conf_flat
I0419 10:40:20.768667 14438 net.cpp:148] Top shape: 1 47232 (47232)
I0419 10:40:20.768674 14438 net.cpp:156] Memory required for data: 720107804
I0419 10:40:20.768682 14438 layer_factory.hpp:77] Creating layer conv7_2_mbox_priorbox
I0419 10:40:20.768699 14438 net.cpp:91] Creating Layer conv7_2_mbox_priorbox
I0419 10:40:20.768707 14438 net.cpp:425] conv7_2_mbox_priorbox <- conv7_2_conv7_2_relu_0_split_3
I0419 10:40:20.768718 14438 net.cpp:425] conv7_2_mbox_priorbox <- data_data_0_split_4
I0419 10:40:20.768731 14438 net.cpp:399] conv7_2_mbox_priorbox -> conv7_2_mbox_priorbox
I0419 10:40:20.768790 14438 net.cpp:141] Setting up conv7_2_mbox_priorbox
I0419 10:40:20.768800 14438 net.cpp:148] Top shape: 1 2 1536 (3072)
I0419 10:40:20.768805 14438 net.cpp:156] Memory required for data: 720120092
I0419 10:40:20.768813 14438 layer_factory.hpp:77] Creating layer conv8_2_mbox_loc
I0419 10:40:20.768836 14438 net.cpp:91] Creating Layer conv8_2_mbox_loc
I0419 10:40:20.768842 14438 net.cpp:425] conv8_2_mbox_loc <- conv8_2_conv8_2_relu_0_split_1
I0419 10:40:20.768858 14438 net.cpp:399] conv8_2_mbox_loc -> conv8_2_mbox_loc
I0419 10:40:20.771654 14438 net.cpp:141] Setting up conv8_2_mbox_loc
I0419 10:40:20.771672 14438 net.cpp:148] Top shape: 1 24 4 4 (384)
I0419 10:40:20.771678 14438 net.cpp:156] Memory required for data: 720121628
I0419 10:40:20.771708 14438 layer_factory.hpp:77] Creating layer conv8_2_mbox_loc_perm
I0419 10:40:20.771733 14438 net.cpp:91] Creating Layer conv8_2_mbox_loc_perm
I0419 10:40:20.771740 14438 net.cpp:425] conv8_2_mbox_loc_perm <- conv8_2_mbox_loc
I0419 10:40:20.771754 14438 net.cpp:399] conv8_2_mbox_loc_perm -> conv8_2_mbox_loc_perm
I0419 10:40:20.771951 14438 net.cpp:141] Setting up conv8_2_mbox_loc_perm
I0419 10:40:20.771965 14438 net.cpp:148] Top shape: 1 4 4 24 (384)
I0419 10:40:20.771971 14438 net.cpp:156] Memory required for data: 720123164
I0419 10:40:20.771978 14438 layer_factory.hpp:77] Creating layer conv8_2_mbox_loc_flat
I0419 10:40:20.771988 14438 net.cpp:91] Creating Layer conv8_2_mbox_loc_flat
I0419 10:40:20.771996 14438 net.cpp:425] conv8_2_mbox_loc_flat <- conv8_2_mbox_loc_perm
I0419 10:40:20.772011 14438 net.cpp:399] conv8_2_mbox_loc_flat -> conv8_2_mbox_loc_flat
I0419 10:40:20.772061 14438 net.cpp:141] Setting up conv8_2_mbox_loc_flat
I0419 10:40:20.772070 14438 net.cpp:148] Top shape: 1 384 (384)
I0419 10:40:20.772078 14438 net.cpp:156] Memory required for data: 720124700
I0419 10:40:20.772085 14438 layer_factory.hpp:77] Creating layer conv8_2_mbox_conf
I0419 10:40:20.772107 14438 net.cpp:91] Creating Layer conv8_2_mbox_conf
I0419 10:40:20.772114 14438 net.cpp:425] conv8_2_mbox_conf <- conv8_2_conv8_2_relu_0_split_2
I0419 10:40:20.772145 14438 net.cpp:399] conv8_2_mbox_conf -> conv8_2_mbox_conf
I0419 10:40:20.789062 14438 net.cpp:141] Setting up conv8_2_mbox_conf
I0419 10:40:20.789119 14438 net.cpp:148] Top shape: 1 738 4 4 (11808)
I0419 10:40:20.789124 14438 net.cpp:156] Memory required for data: 720171932
I0419 10:40:20.789144 14438 layer_factory.hpp:77] Creating layer conv8_2_mbox_conf_perm
I0419 10:40:20.789170 14438 net.cpp:91] Creating Layer conv8_2_mbox_conf_perm
I0419 10:40:20.789180 14438 net.cpp:425] conv8_2_mbox_conf_perm <- conv8_2_mbox_conf
I0419 10:40:20.789196 14438 net.cpp:399] conv8_2_mbox_conf_perm -> conv8_2_mbox_conf_perm
I0419 10:40:20.789508 14438 net.cpp:141] Setting up conv8_2_mbox_conf_perm
I0419 10:40:20.789521 14438 net.cpp:148] Top shape: 1 4 4 738 (11808)
I0419 10:40:20.789530 14438 net.cpp:156] Memory required for data: 720219164
I0419 10:40:20.789535 14438 layer_factory.hpp:77] Creating layer conv8_2_mbox_conf_flat
I0419 10:40:20.789551 14438 net.cpp:91] Creating Layer conv8_2_mbox_conf_flat
I0419 10:40:20.789557 14438 net.cpp:425] conv8_2_mbox_conf_flat <- conv8_2_mbox_conf_perm
I0419 10:40:20.789566 14438 net.cpp:399] conv8_2_mbox_conf_flat -> conv8_2_mbox_conf_flat
I0419 10:40:20.789624 14438 net.cpp:141] Setting up conv8_2_mbox_conf_flat
I0419 10:40:20.789634 14438 net.cpp:148] Top shape: 1 11808 (11808)
I0419 10:40:20.789641 14438 net.cpp:156] Memory required for data: 720266396
I0419 10:40:20.789645 14438 layer_factory.hpp:77] Creating layer conv8_2_mbox_priorbox
I0419 10:40:20.789664 14438 net.cpp:91] Creating Layer conv8_2_mbox_priorbox
I0419 10:40:20.789672 14438 net.cpp:425] conv8_2_mbox_priorbox <- conv8_2_conv8_2_relu_0_split_3
I0419 10:40:20.789683 14438 net.cpp:425] conv8_2_mbox_priorbox <- data_data_0_split_5
I0419 10:40:20.789695 14438 net.cpp:399] conv8_2_mbox_priorbox -> conv8_2_mbox_priorbox
I0419 10:40:20.789778 14438 net.cpp:141] Setting up conv8_2_mbox_priorbox
I0419 10:40:20.789804 14438 net.cpp:148] Top shape: 1 2 384 (768)
I0419 10:40:20.789810 14438 net.cpp:156] Memory required for data: 720269468
I0419 10:40:20.789815 14438 layer_factory.hpp:77] Creating layer conv9_2_mbox_loc
I0419 10:40:20.789855 14438 net.cpp:91] Creating Layer conv9_2_mbox_loc
I0419 10:40:20.789862 14438 net.cpp:425] conv9_2_mbox_loc <- conv9_2_conv9_2_relu_0_split_1
I0419 10:40:20.789875 14438 net.cpp:399] conv9_2_mbox_loc -> conv9_2_mbox_loc
I0419 10:40:20.794080 14438 net.cpp:141] Setting up conv9_2_mbox_loc
I0419 10:40:20.794096 14438 net.cpp:148] Top shape: 1 24 2 2 (96)
I0419 10:40:20.794104 14438 net.cpp:156] Memory required for data: 720269852
I0419 10:40:20.794114 14438 layer_factory.hpp:77] Creating layer conv9_2_mbox_loc_perm
I0419 10:40:20.794127 14438 net.cpp:91] Creating Layer conv9_2_mbox_loc_perm
I0419 10:40:20.794134 14438 net.cpp:425] conv9_2_mbox_loc_perm <- conv9_2_mbox_loc
I0419 10:40:20.794149 14438 net.cpp:399] conv9_2_mbox_loc_perm -> conv9_2_mbox_loc_perm
I0419 10:40:20.794397 14438 net.cpp:141] Setting up conv9_2_mbox_loc_perm
I0419 10:40:20.794407 14438 net.cpp:148] Top shape: 1 2 2 24 (96)
I0419 10:40:20.794414 14438 net.cpp:156] Memory required for data: 720270236
I0419 10:40:20.794420 14438 layer_factory.hpp:77] Creating layer conv9_2_mbox_loc_flat
I0419 10:40:20.794430 14438 net.cpp:91] Creating Layer conv9_2_mbox_loc_flat
I0419 10:40:20.794437 14438 net.cpp:425] conv9_2_mbox_loc_flat <- conv9_2_mbox_loc_perm
I0419 10:40:20.794448 14438 net.cpp:399] conv9_2_mbox_loc_flat -> conv9_2_mbox_loc_flat
I0419 10:40:20.794498 14438 net.cpp:141] Setting up conv9_2_mbox_loc_flat
I0419 10:40:20.794507 14438 net.cpp:148] Top shape: 1 96 (96)
I0419 10:40:20.794512 14438 net.cpp:156] Memory required for data: 720270620
I0419 10:40:20.794518 14438 layer_factory.hpp:77] Creating layer conv9_2_mbox_conf
I0419 10:40:20.794539 14438 net.cpp:91] Creating Layer conv9_2_mbox_conf
I0419 10:40:20.794546 14438 net.cpp:425] conv9_2_mbox_conf <- conv9_2_conv9_2_relu_0_split_2
I0419 10:40:20.794556 14438 net.cpp:399] conv9_2_mbox_conf -> conv9_2_mbox_conf
I0419 10:40:20.828058 14438 net.cpp:141] Setting up conv9_2_mbox_conf
I0419 10:40:20.828146 14438 net.cpp:148] Top shape: 1 738 2 2 (2952)
I0419 10:40:20.828153 14438 net.cpp:156] Memory required for data: 720282428
I0419 10:40:20.828171 14438 layer_factory.hpp:77] Creating layer conv9_2_mbox_conf_perm
I0419 10:40:20.828191 14438 net.cpp:91] Creating Layer conv9_2_mbox_conf_perm
I0419 10:40:20.828204 14438 net.cpp:425] conv9_2_mbox_conf_perm <- conv9_2_mbox_conf
I0419 10:40:20.828222 14438 net.cpp:399] conv9_2_mbox_conf_perm -> conv9_2_mbox_conf_perm
I0419 10:40:20.828557 14438 net.cpp:141] Setting up conv9_2_mbox_conf_perm
I0419 10:40:20.828570 14438 net.cpp:148] Top shape: 1 2 2 738 (2952)
I0419 10:40:20.828588 14438 net.cpp:156] Memory required for data: 720294236
I0419 10:40:20.828593 14438 layer_factory.hpp:77] Creating layer conv9_2_mbox_conf_flat
I0419 10:40:20.828613 14438 net.cpp:91] Creating Layer conv9_2_mbox_conf_flat
I0419 10:40:20.828619 14438 net.cpp:425] conv9_2_mbox_conf_flat <- conv9_2_mbox_conf_perm
I0419 10:40:20.828639 14438 net.cpp:399] conv9_2_mbox_conf_flat -> conv9_2_mbox_conf_flat
I0419 10:40:20.828708 14438 net.cpp:141] Setting up conv9_2_mbox_conf_flat
I0419 10:40:20.828719 14438 net.cpp:148] Top shape: 1 2952 (2952)
I0419 10:40:20.828725 14438 net.cpp:156] Memory required for data: 720306044
I0419 10:40:20.828733 14438 layer_factory.hpp:77] Creating layer conv9_2_mbox_priorbox
I0419 10:40:20.828749 14438 net.cpp:91] Creating Layer conv9_2_mbox_priorbox
I0419 10:40:20.828758 14438 net.cpp:425] conv9_2_mbox_priorbox <- conv9_2_conv9_2_relu_0_split_3
I0419 10:40:20.828768 14438 net.cpp:425] conv9_2_mbox_priorbox <- data_data_0_split_6
I0419 10:40:20.828784 14438 net.cpp:399] conv9_2_mbox_priorbox -> conv9_2_mbox_priorbox
I0419 10:40:20.828862 14438 net.cpp:141] Setting up conv9_2_mbox_priorbox
I0419 10:40:20.828872 14438 net.cpp:148] Top shape: 1 2 96 (192)
I0419 10:40:20.828878 14438 net.cpp:156] Memory required for data: 720306812
I0419 10:40:20.828886 14438 layer_factory.hpp:77] Creating layer pool6_mbox_loc
I0419 10:40:20.828910 14438 net.cpp:91] Creating Layer pool6_mbox_loc
I0419 10:40:20.828920 14438 net.cpp:425] pool6_mbox_loc <- pool6_pool6_0_split_0
I0419 10:40:20.828933 14438 net.cpp:399] pool6_mbox_loc -> pool6_mbox_loc
I0419 10:40:20.835300 14438 net.cpp:141] Setting up pool6_mbox_loc
I0419 10:40:20.835345 14438 net.cpp:148] Top shape: 1 24 1 1 (24)
I0419 10:40:20.835350 14438 net.cpp:156] Memory required for data: 720306908
I0419 10:40:20.835367 14438 layer_factory.hpp:77] Creating layer pool6_mbox_loc_perm
I0419 10:40:20.835391 14438 net.cpp:91] Creating Layer pool6_mbox_loc_perm
I0419 10:40:20.835402 14438 net.cpp:425] pool6_mbox_loc_perm <- pool6_mbox_loc
I0419 10:40:20.835415 14438 net.cpp:399] pool6_mbox_loc_perm -> pool6_mbox_loc_perm
I0419 10:40:20.835726 14438 net.cpp:141] Setting up pool6_mbox_loc_perm
I0419 10:40:20.835738 14438 net.cpp:148] Top shape: 1 1 1 24 (24)
I0419 10:40:20.835744 14438 net.cpp:156] Memory required for data: 720307004
I0419 10:40:20.835752 14438 layer_factory.hpp:77] Creating layer pool6_mbox_loc_flat
I0419 10:40:20.835765 14438 net.cpp:91] Creating Layer pool6_mbox_loc_flat
I0419 10:40:20.835774 14438 net.cpp:425] pool6_mbox_loc_flat <- pool6_mbox_loc_perm
I0419 10:40:20.835783 14438 net.cpp:399] pool6_mbox_loc_flat -> pool6_mbox_loc_flat
I0419 10:40:20.835860 14438 net.cpp:141] Setting up pool6_mbox_loc_flat
I0419 10:40:20.835868 14438 net.cpp:148] Top shape: 1 24 (24)
I0419 10:40:20.835875 14438 net.cpp:156] Memory required for data: 720307100
I0419 10:40:20.835880 14438 layer_factory.hpp:77] Creating layer pool6_mbox_conf
I0419 10:40:20.835904 14438 net.cpp:91] Creating Layer pool6_mbox_conf
I0419 10:40:20.835912 14438 net.cpp:425] pool6_mbox_conf <- pool6_pool6_0_split_1
I0419 10:40:20.835927 14438 net.cpp:399] pool6_mbox_conf -> pool6_mbox_conf
I0419 10:40:20.866551 14438 net.cpp:141] Setting up pool6_mbox_conf
I0419 10:40:20.866677 14438 net.cpp:148] Top shape: 1 738 1 1 (738)
I0419 10:40:20.866703 14438 net.cpp:156] Memory required for data: 720310052
I0419 10:40:20.866760 14438 layer_factory.hpp:77] Creating layer pool6_mbox_conf_perm
I0419 10:40:20.866832 14438 net.cpp:91] Creating Layer pool6_mbox_conf_perm
I0419 10:40:20.866863 14438 net.cpp:425] pool6_mbox_conf_perm <- pool6_mbox_conf
I0419 10:40:20.866904 14438 net.cpp:399] pool6_mbox_conf_perm -> pool6_mbox_conf_perm
I0419 10:40:20.867449 14438 net.cpp:141] Setting up pool6_mbox_conf_perm
I0419 10:40:20.867493 14438 net.cpp:148] Top shape: 1 1 1 738 (738)
I0419 10:40:20.867522 14438 net.cpp:156] Memory required for data: 720313004
I0419 10:40:20.867550 14438 layer_factory.hpp:77] Creating layer pool6_mbox_conf_flat
I0419 10:40:20.867594 14438 net.cpp:91] Creating Layer pool6_mbox_conf_flat
I0419 10:40:20.867626 14438 net.cpp:425] pool6_mbox_conf_flat <- pool6_mbox_conf_perm
I0419 10:40:20.867668 14438 net.cpp:399] pool6_mbox_conf_flat -> pool6_mbox_conf_flat
I0419 10:40:20.867807 14438 net.cpp:141] Setting up pool6_mbox_conf_flat
I0419 10:40:20.867847 14438 net.cpp:148] Top shape: 1 738 (738)
I0419 10:40:20.867878 14438 net.cpp:156] Memory required for data: 720315956
I0419 10:40:20.867913 14438 layer_factory.hpp:77] Creating layer pool6_mbox_priorbox
I0419 10:40:20.867957 14438 net.cpp:91] Creating Layer pool6_mbox_priorbox
I0419 10:40:20.867995 14438 net.cpp:425] pool6_mbox_priorbox <- pool6_pool6_0_split_2
I0419 10:40:20.868017 14438 net.cpp:425] pool6_mbox_priorbox <- data_data_0_split_7
I0419 10:40:20.868060 14438 net.cpp:399] pool6_mbox_priorbox -> pool6_mbox_priorbox
I0419 10:40:20.868182 14438 net.cpp:141] Setting up pool6_mbox_priorbox
I0419 10:40:20.868201 14438 net.cpp:148] Top shape: 1 2 24 (48)
I0419 10:40:20.868211 14438 net.cpp:156] Memory required for data: 720316148
I0419 10:40:20.868221 14438 layer_factory.hpp:77] Creating layer mbox_loc
I0419 10:40:20.868247 14438 net.cpp:91] Creating Layer mbox_loc
I0419 10:40:20.868268 14438 net.cpp:425] mbox_loc <- conv4_3_norm_mbox_loc_flat
I0419 10:40:20.868283 14438 net.cpp:425] mbox_loc <- fc7_mbox_loc_flat
I0419 10:40:20.868297 14438 net.cpp:425] mbox_loc <- conv6_2_mbox_loc_flat
I0419 10:40:20.868311 14438 net.cpp:425] mbox_loc <- conv7_2_mbox_loc_flat
I0419 10:40:20.868326 14438 net.cpp:425] mbox_loc <- conv8_2_mbox_loc_flat
I0419 10:40:20.868341 14438 net.cpp:425] mbox_loc <- conv9_2_mbox_loc_flat
I0419 10:40:20.868353 14438 net.cpp:425] mbox_loc <- pool6_mbox_loc_flat
I0419 10:40:20.868373 14438 net.cpp:399] mbox_loc -> mbox_loc
I0419 10:40:20.868472 14438 net.cpp:141] Setting up mbox_loc
I0419 10:40:20.868489 14438 net.cpp:148] Top shape: 1 80388 (80388)
I0419 10:40:20.868497 14438 net.cpp:156] Memory required for data: 720637700
I0419 10:40:20.868508 14438 layer_factory.hpp:77] Creating layer mbox_conf
I0419 10:40:20.868530 14438 net.cpp:91] Creating Layer mbox_conf
I0419 10:40:20.868543 14438 net.cpp:425] mbox_conf <- conv4_3_norm_mbox_conf_flat
I0419 10:40:20.868558 14438 net.cpp:425] mbox_conf <- fc7_mbox_conf_flat
I0419 10:40:20.868571 14438 net.cpp:425] mbox_conf <- conv6_2_mbox_conf_flat
I0419 10:40:20.868587 14438 net.cpp:425] mbox_conf <- conv7_2_mbox_conf_flat
I0419 10:40:20.868598 14438 net.cpp:425] mbox_conf <- conv8_2_mbox_conf_flat
I0419 10:40:20.868611 14438 net.cpp:425] mbox_conf <- conv9_2_mbox_conf_flat
I0419 10:40:20.868623 14438 net.cpp:425] mbox_conf <- pool6_mbox_conf_flat
I0419 10:40:20.868641 14438 net.cpp:399] mbox_conf -> mbox_conf
I0419 10:40:20.868733 14438 net.cpp:141] Setting up mbox_conf
I0419 10:40:20.868752 14438 net.cpp:148] Top shape: 1 2471931 (2471931)
I0419 10:40:20.868762 14438 net.cpp:156] Memory required for data: 730525424
I0419 10:40:20.868773 14438 layer_factory.hpp:77] Creating layer mbox_priorbox
I0419 10:40:20.868790 14438 net.cpp:91] Creating Layer mbox_priorbox
I0419 10:40:20.868803 14438 net.cpp:425] mbox_priorbox <- conv4_3_norm_mbox_priorbox
I0419 10:40:20.868818 14438 net.cpp:425] mbox_priorbox <- fc7_mbox_priorbox
I0419 10:40:20.868832 14438 net.cpp:425] mbox_priorbox <- conv6_2_mbox_priorbox
I0419 10:40:20.868844 14438 net.cpp:425] mbox_priorbox <- conv7_2_mbox_priorbox
I0419 10:40:20.868856 14438 net.cpp:425] mbox_priorbox <- conv8_2_mbox_priorbox
I0419 10:40:20.868887 14438 net.cpp:425] mbox_priorbox <- conv9_2_mbox_priorbox
I0419 10:40:20.868902 14438 net.cpp:425] mbox_priorbox <- pool6_mbox_priorbox
I0419 10:40:20.868921 14438 net.cpp:399] mbox_priorbox -> mbox_priorbox
I0419 10:40:20.869017 14438 net.cpp:141] Setting up mbox_priorbox
I0419 10:40:20.869037 14438 net.cpp:148] Top shape: 1 2 80388 (160776)
I0419 10:40:20.869050 14438 net.cpp:156] Memory required for data: 731168528
I0419 10:40:20.869069 14438 layer_factory.hpp:77] Creating layer mbox_conf_reshape
I0419 10:40:20.869088 14438 net.cpp:91] Creating Layer mbox_conf_reshape
I0419 10:40:20.869099 14438 net.cpp:425] mbox_conf_reshape <- mbox_conf
I0419 10:40:20.869122 14438 net.cpp:399] mbox_conf_reshape -> mbox_conf_reshape
I0419 10:40:20.869235 14438 net.cpp:141] Setting up mbox_conf_reshape
I0419 10:40:20.869259 14438 net.cpp:148] Top shape: 1 20097 123 (2471931)
I0419 10:40:20.869280 14438 net.cpp:156] Memory required for data: 741056252
I0419 10:40:20.869293 14438 layer_factory.hpp:77] Creating layer mbox_conf_softmax
I0419 10:40:20.869313 14438 net.cpp:91] Creating Layer mbox_conf_softmax
I0419 10:40:20.869323 14438 net.cpp:425] mbox_conf_softmax <- mbox_conf_reshape
I0419 10:40:20.869339 14438 net.cpp:399] mbox_conf_softmax -> mbox_conf_softmax
I0419 10:40:20.870957 14438 net.cpp:141] Setting up mbox_conf_softmax
I0419 10:40:20.871016 14438 net.cpp:148] Top shape: 1 20097 123 (2471931)
I0419 10:40:20.871039 14438 net.cpp:156] Memory required for data: 750943976
I0419 10:40:20.871062 14438 layer_factory.hpp:77] Creating layer mbox_conf_flatten
I0419 10:40:20.871091 14438 net.cpp:91] Creating Layer mbox_conf_flatten
I0419 10:40:20.871121 14438 net.cpp:425] mbox_conf_flatten <- mbox_conf_softmax
I0419 10:40:20.871142 14438 net.cpp:399] mbox_conf_flatten -> mbox_conf_flatten
I0419 10:40:20.871249 14438 net.cpp:141] Setting up mbox_conf_flatten
I0419 10:40:20.871265 14438 net.cpp:148] Top shape: 1 2471931 (2471931)
I0419 10:40:20.871273 14438 net.cpp:156] Memory required for data: 760831700
I0419 10:40:20.871295 14438 layer_factory.hpp:77] Creating layer detection_out
I0419 10:40:20.871336 14438 net.cpp:91] Creating Layer detection_out
I0419 10:40:20.871347 14438 net.cpp:425] detection_out <- mbox_loc
I0419 10:40:20.871359 14438 net.cpp:425] detection_out <- mbox_conf_flatten
I0419 10:40:20.871371 14438 net.cpp:425] detection_out <- mbox_priorbox
I0419 10:40:20.871392 14438 net.cpp:399] detection_out -> detection_out
I0419 10:40:20.874153 14438 net.cpp:141] Setting up detection_out
I0419 10:40:20.874181 14438 net.cpp:148] Top shape: 1 1 1 7 (7)
I0419 10:40:20.874188 14438 net.cpp:156] Memory required for data: 760831728
I0419 10:40:20.874198 14438 layer_factory.hpp:77] Creating layer detection_eval
I0419 10:40:20.874238 14438 net.cpp:91] Creating Layer detection_eval
I0419 10:40:20.874250 14438 net.cpp:425] detection_eval <- detection_out
I0419 10:40:20.874265 14438 net.cpp:425] detection_eval <- label
I0419 10:40:20.874286 14438 net.cpp:399] detection_eval -> detection_eval
I0419 10:40:20.874920 14438 net.cpp:141] Setting up detection_eval
I0419 10:40:20.874936 14438 net.cpp:148] Top shape: 1 1 123 5 (615)
I0419 10:40:20.874943 14438 net.cpp:156] Memory required for data: 760834188
I0419 10:40:20.874953 14438 net.cpp:219] detection_eval does not need backward computation.
I0419 10:40:20.874963 14438 net.cpp:219] detection_out does not need backward computation.
I0419 10:40:20.874974 14438 net.cpp:219] mbox_conf_flatten does not need backward computation.
I0419 10:40:20.874986 14438 net.cpp:219] mbox_conf_softmax does not need backward computation.
…
